acados_mpc/acados_mpc/clean_monotone_INN_traintestsave/FF_model50k.pt (torch, 540080 bytes, 10 tensors)

feedfwd_stack.0.weight f4 [128, 13]
00000000: c626 7dbe 2780 ed3d 0ed9 51bd faf3 96be
00000010: 0bf2 923e 7066 b93d e13b 24bd a06d 48be
00000020: 7547 543e 09ed 08be 64f4 333d ede3 ebbc
00000030: 4b36 273e 46c5 d33c 1dcb 0e3e 5454 aa3e
00000040: 0526 983c 267e ad3d 794f 923e d7ed 98bd
00000050: 0d63 9d3e 807a 90be 8495 3abd 0f7a acbd
00000060: d8cb 3fbe d0d1 93be 4048 bebb c6c1 f1bb
00000070: 3250 90be c133 86bd 5849 90bb fe7b 2dbe
00000080: bc3d acbd 5a6c 89bc 8d8f 693f 85ae fd3d
00000090: ccc9 5d3e cf5c 16bd f25c 1e3f 86c0 b6bd
000000a0: e3a9 4d3e f1a3 da3d 3b34 1ebd f691 053e
000000b0: d302 013e 82a3 32bf 1688 90be d033 7e3d
000000c0: 8e46 3bbe 4432 d0bc a04a 22be ded8 113e
000000d0: ac4b efbd 6689 abbd 37aa 0fbe 36e1 adbb
000000e0: 89ac 96bd bad6 9fbe 7ff6 cfbe c03c c0be
000000f0: fbc2 1dbf 7333 bf3d 5531 b6bd 184b 4abe
00000100: 3c46 febe 1017 8ebb 7ef5 26bc 4cf8 ac3b
00000110: d485 03bc 8e2c 46bc 1da9 33bc 9faf 893f
00000120: fe2c 00bd 6377 403f 36fa 6cbc 6e1f 7b3e
00000130: 9fa4 cf3c 26d0 023e 7b28 34be a0fb 44be
00000140: 5f85 29be 5dff b3bc 3a55 84be 1924 a8bd
00000150: 97c2 05bf df46 883e 0d2b ea3e 77b8 0fbe
00000160: 32a3 1dbe 2316 2dbd 2319 4f3e f3ff 01bd
00000170: 15cd 71be a52f 053e dd9e 9c3d 7f6d 59be
00000180: e335 2d3e 1cd1 18bf cd9b 3abf e055 41be
00000190: e07f 1e3d ecbb a3bd 914c 5abe 21fa f43d
000001a0: d442 c1bb 45a5 ab3c 3046 efbd f8e4 d7bc
000001b0: ecea 443d 3d69 cfbd 2f2e 57bf 06f6 643d
000001c0: 9e5e 52bf 49e9 bdbb 32a4 c1be d97e 123e
000001d0: b4c0 c3be a053 2d3d f110 883e 358c 40be
000001e0: 16e3 fbbc 1463 6b3e fe5d 3fbe 9262 6a3d
000001f0: ae56 dd3e 342c 813c d556 43bd a21d d73b
00000200: 04c1 303e 246f 39be 13ef 193d dc2e a83e
00000210: 2d02 373d 3619 9bbd 6fae 1b3e 5ff4 c4bc
00000220: d0cf 493f b0f8 5d3f 78c0 123f 30b8 803e
00000230: 1b52 ec3d 3c25 2d3e cf68 bc3e bf77 1fbe
00000240: 4903 ab3d 13b8 5abe 0f98 24bd 4cee f63c
00000250: e6bc 12be 88af 263f 5512 ba3e a2d4 4bbf
00000260: 6e49 693d 2ae6 cc3d 6509 82bc 16c2 99be
00000270: c46f a93d 82aa 483e fcfb 243e f500 a03d
00000280: 7b5c 313e 4b51 203e 6a75 fb3e 1305 1a3e
00000290: 8598 8dbe 97bd f8bb be5c 423e e6cb 8d3e
000002a0: f03a a9be bd81 853e ddf9 8abe 2024 92be
000002b0: e20c 803e 1bd9 94be b557 15be c61f 9abe
000002c0: 86e0 8e3d f943 333d 908f 26bd 43ce 84bd
000002d0: 35c1 6dbd b7ff 2abe 005f a4be ca6e fc3c
000002e0: 76d6 3d3e 5194 8fbe c0be 25be e335 31bd
000002f0: 940f b53e fcb8 2c3f f8f2 ce3e ba90 423e
00000300: dd7b 653d 3bbb bf3e b77a 923e 658f 48be
00000310: 4966 85bc a63c a6be 3663 aebd 4d6d 3cbc
00000320: c120 3cbe 5f45 72bf 8710 b23e 2561 fabd
00000330: 9d7c 113e 4ce2 93be 61d3 823e a5cc 043e
00000340: 9a2e 323e 8fed c8bd d7a1 05be ff55 273e
00000350: 8d1a abbd 59ac 12be 463d 9f3e 81aa cd3c
00000360: 1ce8 3f3f 73a5 b13b 2fbf 153e 9db7 01bd
00000370: d61b 803e 726c 7f3e 9789 be3d f00a 33be
00000380: 495b 593e 9ae8 3e3e ac4a 46bd 191a 873f
00000390: ed11 f0be fb4e c63e c82a ad3d 4149 9e3e
000003a0: 9a63 17be b342 edba bfcf 673e a440 5b3e
000003b0: 9edf a73d 37e2 263d ffd0 973e 9a14 fbbc
000003c0: c0bb 043e 04e8 87bf 8500 49bd c8a7 3a3e
000003d0: ec4e 0cbd 24b9 19be f2d9 a93e a0c6 45be
000003e0: e161 343e f463 ff3d e1ff 1abe bac6 d03d
000003f0: fabf aa3d 025d 97be e6bd 74be 496b 37be
-0.24721822 0.11596709 -0.05123239 -0.29483014 0.2870029 0.090527415 -0.040096167 -0.19573069
0.20730384 -0.13371672 0.04393424 -0.028795207 0.16329305 0.025850903 0.13944669 0.33267462
0.018572817 0.084713265 0.28576258 -0.07467239 0.30739632 -0.2821846 -0.045552745 -0.08421718
-0.18730104 -0.28871012 -0.0058069527 -0.007377836 -0.28186184 -0.0655284 -0.0044032745 -0.1694183
-0.084102124 -0.016775299 0.91234666 0.123868026 0.2165901 -0.036709603 0.61860573 -0.0892344
0.20084338 0.106758006 -0.03862403 0.13043961 0.12598734 -0.69780743 -0.28228825 0.06206113
-0.18288633 -0.025414594 -0.1584878 0.14242885 -0.11684355 -0.08375816 -0.14029776 -0.0053063883
-0.07357127 -0.3121851 -0.4061775 -0.3754635 -0.6162564 0.09335985 -0.08896128 -0.19755208
-0.4966296 -0.0043362454 -0.010190366 0.0052786227 -0.008027513 -0.012095584 -0.010965613 1.075672
-0.031292908 0.7518217 -0.014463952 0.24523708 0.025347052 0.12774715 -0.17593567 -0.19236612
-0.16554783 -0.021972353 -0.25846273 -0.0821001 -0.52250046 0.2661657 0.4573597 -0.14035212
-0.15394285 -0.04225744 0.20224433 -0.031738233 -0.23613389 0.13006456 0.07647488 -0.21233176
0.16915087 -0.59694076 -0.72893983 -0.18880415 0.03869617 -0.07994828 -0.2131827 0.11961771
-0.005897859 0.02095283 -0.11683309 -0.026354298 0.0480756 -0.101274945 -0.84054846 0.05589869
-0.82175624 -0.005795632 -0.37820584 0.14306201 -0.38232958 0.04231608 0.26575425 -0.18803485
-0.030747931 0.22987014 -0.18688199 0.05722291 0.43230194 0.015768148 -0.04769023 0.006564812
0.1726113 -0.18108803 0.037581515 0.3284825 0.04467981 -0.07573168 0.1520326 -0.024042306
0.7883272 0.8670759 0.57324934 0.25140524 0.11539098 0.16908735 0.36798713 -0.15573023
0.08350236 -0.21359281 -0.040184077 0.030142926 -0.14329872 0.6511159 0.3634211 -0.79621327
0.056954794 0.10004838 -0.01587362 -0.30030888 0.08273271 0.19596294 0.1611175 0.078126825
0.17320435 0.15656011 0.49113017 0.15040998 -0.27655426 -0.0075909602 0.18980691 0.27694625
-0.33052778 0.26075545 -0.27143756 -0.28543186 0.2500983 -0.29071888 -0.14584239 -0.30102366
0.06976418 0.043765996 -0.040664256 -0.06484654 -0.058045585 -0.1669911 -0.3210373 0.030814547
0.18538842 -0.28042844 -0.16186047 -0.04326428 0.35363448 0.67469764 0.40419745 0.19000521
0.05602633 0.37447533 0.2860925 -0.1958595 -0.016284125 -0.32468146 -0.08515017 -0.011500669
-0.1837187 -0.946371 0.34778234 -0.1222556 0.14207692 -0.28883588 0.25551894 0.1296869
0.1740059 -0.09810936 -0.13050018 0.16341399 -0.083546735 -0.14323558 0.31101435 0.025105717
0.74963546 0.0054213344 0.14623712 -0.031669248 0.25021237 0.24943712 0.09303587 -0.17484641
0.21226229 0.18643418 -0.048411056 1.0554839 -0.46888676 0.38732132 0.084554255 0.30915263
-0.14784089 -0.0018101543 0.22637843 0.21411377 0.081969485 0.04074308 0.2965164 -0.030649472
0.12962246 -1.061768 -0.04907276 0.18228066 -0.034254953 -0.15012032 0.33174092 -0.1931405
0.17615463 0.124702364 -0.15136673 0.10194154 0.08337398 -0.29563147 -0.23900566 -0.1791202

feedfwd_stack.0.bias f4 [128]
00000000: 1e6b 853e 2854 f53d 71ae 92bd 597b 113e
00000010: d35b 1cbe 4780 ff3e ecac 06be 0673 993e
00000020: 2895 b03e 483a 57be d2a5 92be 6a67 85be
00000030: 3948 c8bd bd0a 633e 40b5 7f3e 2c3e 92be
00000040: 4b0d 94bd 0fd9 85be 5a05 8f3e 4953 d13e
00000050: 2b9c ef3d ee14 acbd 9008 e23d 7dff b8be
00000060: b780 acbc d7cb 77bd de4b 013e e759 80be
00000070: 5870 f23d 23b8 3fbe d964 ab3d 48cd 8e3e
00000080: 4653 13bd 9614 403e 6b8a 353e cb43 c93d
00000090: 6205 68bd 830c b33e e750 a13e 4b65 1dbe
000000a0: f8c7 ed3d 6349 783e c379 fcbd 0f29 77bd
000000b0: 82a9 2f3e d1f9 e53d a6eb 043e e8b8 ab3d
000000c0: ce7b a5bd 9506 a73d 6efe 5f3e c671 4abd
000000d0: 14f3 92be 859b 4b3c 8631 033e 5d38 e03e
000000e0: 284b 043f bc83 d4bd 542f 823e 1fd6 a7be
000000f0: fe41 87be 0a42 aa3e 963a 4cbd fe76 533e
00000100: 5aed df3d 2990 5e3e 7510 843d a91a bb3e
00000110: 6cc0 5ebd 95c4 f9bd cd03 abbd 59d4 5a3e
00000120: d84c 80be 1a39 d03d c977 013e 885c 8abe
00000130: c0fd 443e 4e25 4c3e 5bfe 133e 63f4 4abe
00000140: caea 8c3d fd85 6a3c 15a0 8c3e cc94 053f
00000150: 0cc0 a2bd 81d9 27be a2f3 143e ec02 5a3e
00000160: 8456 163e a143 aa3e f604 d33e de85 febd
00000170: 3ee1 833d 0586 50bd 0334 25be 8b3d 96be
00000180: 5520 24be 8ce2 093e 905d 7fbe 50b5 b43e
00000190: 3948 ff3e 0559 943e 50d7 82be 7928 7e3e
000001a0: e87f db3d d003 82be 6ecf abbc 3c99 1a3e
000001b0: e716 68bd 0332 403e 7356 10be 6d7f 193e
000001c0: 4a0b 95bc dcce 8b3e cb4d ecbd 392d d33d
000001d0: 4cd8 f23e def6 523e 01b0 743e 655c adbd
000001e0: d7a5 03be 4641 433e 77ee 22be f6f5 9b3e
000001f0: 8823 35be 3df1 fb3e 764e bdbe cfa7 9cbe
0.26058286 0.11978942 -0.07162178 0.1420721 -0.15269403 0.49902555 -0.13151902 0.29970568
0.34488797 -0.21018326 -0.28642136 -0.2605546 -0.097794004 0.22172065 0.24971485 -0.28563058
-0.07229098 -0.26142165 0.2793377 0.40883854 0.116997086 -0.084024295 0.110367894 -0.36132422
-0.02105747 -0.06049713 0.12626597 -0.2506859 0.11837834 -0.18722586 0.083688445 0.27890992
-0.035968088 0.18757853 0.17728584 0.098273836 -0.05664576 0.34970483 0.31507036 -0.15370671
0.11610407 0.24246745 -0.12327912 -0.06034189 0.17154506 0.11229289 0.12980518 0.083848774
-0.080802545 0.08155552 0.21874401 -0.04942491 -0.2870108 0.012427215 0.1281186 0.43793002
0.5167718 -0.10376689 0.25426733 -0.3278055 -0.26417536 0.3325351 -0.04986056 0.2065086
0.10933943 0.2173468 0.064484514 0.36543778 -0.054382727 -0.12195698 -0.08350334 0.21370067
-0.25058627 0.10167141 0.1264335 -0.2702372 0.19237423 0.19936106 0.14452498 -0.19819789
0.0688072 0.014314172 0.27465883 0.5218017 -0.07946786 -0.16391565 0.14546064 0.21290177
0.1468144 0.33254722 0.41214722 -0.12427877 0.06439446 -0.05090906 -0.16133122 -0.2934383
-0.16027959 0.13465327 -0.24938035 0.3529458 0.4985979 0.28974167 -0.25554895 0.24820127
0.107177556 -0.25393534 -0.020972934 0.15097517 -0.056662466 0.18769078 -0.14095478 0.14990015
-0.01819386 0.2730626 -0.11538275 0.1031136 0.47430646 0.20601985 0.23895265 -0.084648885
-0.12856232 0.19067869 -0.1591128 0.3046109 -0.17689335 0.49207488 -0.36973923 -0.30596778

feedfwd_stack.2.weight f4 [256, 128]
00000000: 033e c3bb e44a a43d 6df0 1ebd ca46 47bd
00000010: f8ac 7a3d e3f6 28be f54a c93c b055 043d
00000020: b44a 99bd 05b0 6e3d 8f5e 8fbc 2115 37bd
00000030: 0856 63bd 5c31 a23c ff7e 8a3d 063c a8bc
00000040: 6607 283d 70b2 6eba a237 85bd 1591 8ebd
00000050: 4225 a7bd e3d6 c2bc 3ac8 de3d 4847 83bc
00000060: 33cc 4fbd b58a 34bd b565 93bc 9e85 10bd
00000070: a937 873d c31a bfbd d16a df3d f4bb 233e
00000080: 1423 a93d 7168 c6bd 166f 4dbd 1acf 6cbc
00000090: 9323 7f3d dbad 883d 543e 003e 5a11 eabc
000000a0: 17f5 8dbd 486e 39bd 17d6 7b3c ec4a 4a3d
000000b0: 8616 493d f67d 42be d3d1 8fbc 7757 acbd
000000c0: 8943 ab3d 0923 35be 1f78 9f3d 1852 983d
000000d0: 4d99 a23d 4de7 863d d17e 35bd 072a f2bd
000000e0: 746a ed3d da8a 043c 8dc1 16bc 3a23 8abd
000000f0: 9732 f43b bb82 813d 2f79 d4bd d6aa 883c
00000100: 384e d7bd 934b b3bc ee51 7fbc d90b 183d
00000110: 7266 a53d 9090 c4bd edf4 2abc d8e0 f83d
00000120: a9f0 31bd 8e2c 323d 1c43 cb3d e7fa 203d
00000130: f99a 00bd 8e40 8cbc c356 86bc 9d6d 84bd
00000140: baf5 f1bb 4159 823c f03e 81bd f640 923c
00000150: ba99 85bd 42f8 df3c 1652 1abd 50ff ae3b
00000160: 9d4b 50bc bc1f e23c a819 11bd 9498 5bbb
00000170: 936b ddbc cdac 1cbd b63f 553d 475b 393b
00000180: 1756 c9bc b697 49bd 8691 51bc 6b61 e0bd
00000190: fdf5 0c3e 9b5d d73c 1137 d03a 1e26 b9bd
000001a0: 3ce8 1abd 1f79 973d 41fe 673d 0492 7bbd
000001b0: 87ea 20bd e514 193d f1bb 5d3c 5d54 f7bc
000001c0: f45d 7b3d 426f 1bbd ffdb ab3d 3e65 6639
000001d0: 859e 88bd 107e f3bc 8516 5ebd b822 313c
000001e0: c7b9 eebd 8b90 cbba db63 113d 52aa c83d
000001f0: 4ba5 b83d e5af 8abe 2236 9e3d c4fb 963c
00000200: 4717 223c a839 033d 946c 70bc e100 49bd
00000210: d78b 19bd 5ea0 ba3d 31d8 a13d e863 f13c
00000220: b4d0 05bc 1ea9 313d b4c2 203d 6d44 fabc
00000230: 9801 bf3d 3b00 2d3d 41e3 6f3d d389 773d
00000240: f2e0 29bc 5028 9dbd d8ad 47bd 865e 73bd
00000250: 1e16 b5bd 5711 173c 92f5 25bc 1502 95bc
00000260: 75a0 00ba f868 afbd d1de bc3d d459 eb3b
00000270: 5e14 083c f3bd 663e fedd 573d 088f 3abc
00000280: fa36 a5bd ee84 8abd ac6e 73bd 94b2 793c
00000290: 84e8 083e 6bd9 e53c c1b6 cb3d 1eea 893d
000002a0: 8310 b7bc 2679 2abd dcc5 3c3e 2061 36bd
000002b0: 4174 b3bc e443 bbbd 2ed7 8fbd fce9 853d
000002c0: 8782 37bc 3d60 f03b 7651 0d3d 8bd2 a7bd
000002d0: febe 303d 2c46 c83d de8f 18bb d69f 273d
000002e0: 5aec 7fbd 9f8b 91bd 77c9 b13c 29d5 b53c
000002f0: 4438 893d 762c eebc e0cb f93d afba a0bd
00000300: ee65 383d cdf5 fbbc e342 853d 5015 de3c
00000310: 9ecd 933d b499 8d3c 7081 e73a 1262 683c
00000320: 8cf9 55bd ac9c bd3c 5a1b 1ebe 9295 91bd
00000330: 4871 933d 70d8 71bd 6b46 1f3c b45b 583d
00000340: 36ea 183e e20e 563d 5dfc 69bd 3259 20be
00000350: a771 81bd 37ed 353d af7a 6c3c 9db8 22bd
00000360: 66fc 1e3d bae7 cdbc 9d3a ccbb bfd8 2abb
00000370: 5a51 ad3d 82a0 83bc 52b8 913d daf7 6d3d
00000380: 8f26 a33d f3a0 233c 06a0 503d aacd fb3d
00000390: 464c c8bd bbb2 a83d 8c38 ce3d 9d75 043e
000003a0: 62b7 06bd dc0a c93d 3b2d 36bc b764 5c3d
000003b0: beb1 39bd 238c e33d 6288 8abc 0e41 8f3d
000003c0: dfd0 8abc 26c8 603d 8466 b0bd c91e 173d
000003d0: 70d4 59bd 95d9 f9bc 2e43 223d 649a 9b3b
000003e0: e651 df3d 73df 7fbd 5033 da3c 66f5 cebd
000003f0: 1f25 843d bdb9 30bd e89d 283d 710c 81bd
-0.00595832 0.08022097 -0.038803507 -0.048651494 0.061200112 -0.1650043 0.024571875 0.03230828
-0.074849516 0.058273334 -0.017501144 -0.044697884 -0.055501968 0.019798927 0.06762504 -0.020536434
0.04102268 -0.0009105569 -0.06504752 -0.06961266 -0.08161403 -0.023784107 0.10878034 -0.0160252
-0.05073185 -0.044077594 -0.017992834 -0.035283677 0.06602413 -0.09331276 0.109090455 0.15989667
0.08258644 -0.09687889 -0.050154768 -0.014453674 0.062289786 0.06673785 0.12523776 -0.028572727
-0.06931513 -0.045271188 0.015370867 0.049387857 0.049093746 -0.18993363 -0.017556107 -0.0841512
0.08362491 -0.17689146 0.07786583 0.07437533 0.07939396 0.06587086 -0.044310395 -0.11824422
0.1159257 0.008089745 -0.00920142 -0.06745 0.00745232 0.06323763 -0.103746764 0.016683023
-0.10512966 -0.021886623 -0.015583498 0.037120674 0.080761805 -0.095978856 -0.010434371 0.121522605
-0.043442402 0.043499522 0.099249095 0.03930178 -0.031397793 -0.017120626 -0.016398793 -0.064662196
-0.007384029 0.0159117 -0.063108325 0.017853241 -0.06523462 0.027340058 -0.03767594 0.005340494
-0.01271334 0.027603023 -0.03542486 -0.0033507692 -0.027028834 -0.038250733 0.052062713 0.0028283165
-0.024577184 -0.04921695 -0.012791043 -0.10956081 0.13765712 0.026289752 0.0015885552 -0.090404734
-0.037819132 0.07396149 0.05663896 -0.06141855 -0.039286163 0.037373442 0.013533578 -0.030191595
0.061368898 -0.0379479 0.0839157 0.00021972225 -0.0667086 -0.029723197 -0.054220695 0.0108115
-0.11656528 -0.0015530748 0.03549562 0.09798111 0.09015902 -0.27087322 0.07725169 0.018430598
0.009893245 0.032037407 -0.014674325 -0.049073104 -0.037486877 0.09112619 0.07902563 0.029466584
-0.0081674345 0.043374173 0.039248183 -0.030550206 0.09326476 0.042236548 0.058566336 0.060434174
-0.010368573 -0.076737046 -0.048749775 -0.059416316 -0.08842109 0.009220443 -0.010129349 -0.01818947
-0.00049067225 -0.08564943 0.09222186 0.007182339 0.008305637 0.22533397 0.052701943 -0.01138664
-0.080671266 -0.067636356 -0.059431717 0.01524033 0.13369948 0.028057775 0.09946967 0.067341074
-0.02234674 -0.041619442 0.18434852 -0.04452622 -0.02190602 -0.091438085 -0.07023464 0.065387696
-0.011200554 0.0073356912 0.034501515 -0.08194455 0.043150894 0.09779009 -0.002327911 0.040923916
-0.06248126 -0.07106709 0.021702511 0.02219637 0.06700185 -0.029073935 0.12197089 -0.07848107
0.045019083 -0.030756855 0.06506898 0.027109772 0.07216953 0.017285205 0.0017662477 0.014183538
-0.05223994 0.023145996 -0.15440121 -0.071086064 0.07199341 -0.0590443 0.009721379 0.05282183
0.14933094 0.052260287 -0.057125438 -0.15659025 -0.063205056 0.04441568 0.014433547 -0.039726842
0.038814925 -0.02513491 -0.006232573 -0.0026069132 0.08462782 -0.016067747 0.071152344 0.058097698
0.07966339 0.009987104 0.05093386 0.12295087 -0.09780173 0.08237215 0.10069379 0.12935491
-0.03288973 0.098165244 -0.011119182 0.053806987 -0.045335524 0.11110713 -0.016910736 0.0699483
-0.0169453 0.054878376 -0.08613303 0.036894593 -0.05318111 -0.030499259 0.03961485 0.0047486294
0.10904293 -0.062468957 0.026635796 -0.101054 0.06452393 -0.043145884 0.041166216 -0.06301201

feedfwd_stack.2.bias f4 [256]
00000000: 3189 8e3d 4cba 64bd 5e49 273b 11c3 4c3c
00000010: a1a6 e6bc 662e bb3d 93e9 bb3d 1a13 abbd
00000020: 96a2 19be fb50 ee3d 8853 2b3d 9b8e d23d
00000030: a33c 8c3d 05bb 003d 8c6b 0ebc e8dc 8c3d
00000040: 946c cebb f4bf 3abc 3dbb 21bd a652 1d3d
00000050: 727d a2bd 6c83 a3bd e4f3 8b3d 875b d03d
00000060: e7da 843d 1cee 2ebd 2db3 893d 64c2 8abd
00000070: 819f 253e 2970 533d 6a20 c1bd 0286 0e3e
00000080: 74bf d03d c406 2a3e 6c11 8c3d cf61 313d
00000090: e737 763d 2688 b0bd 1abd b9ba ab4f 1d3c
000000a0: 1fa1 9cbd cfaf 983d aaca 0dbe bfc5 d03b
000000b0: ac76 bd3d 7afe 023d ca42 d9bd 27c6 35be
000000c0: 9fde c93d d81a bfbc e073 9dbc 40a9 b2bd
000000d0: 425a ebbd 6a45 f9bd 2fe1 1cbe 8911 82bd
000000e0: 2272 06ba a109 4d3e 242b fabc 71c8 2a3e
000000f0: 87cb 71bc d413 f93d fa28 ad3d 4360 86bd
00000100: bb12 68be 3ae1 08be 7f80 bf3d 4ddc 73bd
00000110: c0b9 193c 2dd9 72bd 720d d5bd ab97 83bd
00000120: 819e d83d 50b8 28bc d921 91bc 0af1 083e
00000130: 7ff4 c93d 0e21 a1bc f935 0abd 4eb3 7d3c
00000140: bb78 013d 1e1f fd3d edac 233e 78da b13d
00000150: b2f5 cc3d 3670 cb3c 0301 94bb d0b3 84bd
00000160: 9f6c f03d f60d 113e 8d7a 3d3d 802f ab3d
00000170: 0ed5 243e f78f edbd ce6b acbd 0cec 08bd
00000180: c08e 2b3d e543 ba3a 78a1 d83d cd89 03be
00000190: 2815 19be fe5c 163c eef1 f33d 7f07 933d
000001a0: e447 453d eddf c03d 6e43 b2bd 83e6 7a3b
000001b0: 1e97 573d c5ed b73c 7855 73bc 40ee b03d
000001c0: 3932 103d d7ce 67bd 9704 093d 40ea 40bd
000001d0: b1d7 2fbd 61d4 0dbe 37b2 53bd 1215 49be
000001e0: 92b6 7abd d417 c83c 75c6 99bd 1aa6 273e
000001f0: 24b5 00bd 5191 eabd 8abf 8a3c 16ed e43d
00000200: 1f32 10bd 2ec3 21bc 63b3 c03b 7b66 29be
00000210: 860c 883c 72c4 fa3c cf83 c1bd b09e 0f3e
00000220: 6218 ccbc 8911 d3bd 4d68 11be 2345 12be
00000230: ea08 20bd 5ea5 c53d 4c88 45bc 59c3 22bd
00000240: ff0f a73d 704a c6bd 6919 a2bd 1cb7 873b
00000250: b573 99bd 0626 10bd 93e3 253d 27aa 2abd
00000260: 6c21 233d aec5 57bd 112f 1cbe 12e7 0cbc
00000270: d242 1f3e c2e5 c5bd f8cd 9ebc a46a 4c3d
00000280: b487 cabc d86d 223d 30ef c7bd b4e7 db3c
00000290: 39b3 04be 961f 363e f35d bc3d a331 5e3c
000002a0: f266 cd3c 14c7 0b3c 3f63 9cbd 8270 a2bd
000002b0: 1691 68bd db65 25bd 1e68 14bd 3088 d6bd
000002c0: d71b 8fbc 9003 7dbd 8bd5 30bd f43b a6b8
000002d0: 232d 473d 5a9a 013d e9c3 373d 92b6 ce3d
000002e0: efd6 b33c ac97 c33d 62ed 06be ea7f 4cbd
000002f0: 7ab0 0abe 63d5 8dbd 7e27 1c3c c7e5 40bc
00000300: 4970 a3bd a428 fc3d 4c11 66bd c166 c23c
00000310: 9fc4 843d 4a13 9ebd 10f2 733c 17da 333e
00000320: 1e2c 75bd 0a46 d1bc 4ead 89bd a1e3 d2bc
00000330: 04e5 1c3c 9b31 27be 3ea7 4a3c ae28 1abe
00000340: 4bfb 803d 62e3 843d 7d81 813c 702d 68bd
00000350: 149a 24be 1d36 12bc a963 86bd daf5 0cbe
00000360: 3c2a 443c e9e9 243e 7434 41bd 9502 1ebc
00000370: 7fe5 14bc 405f 08be 7953 d93d e999 483d
00000380: 8d81 c2bd cf20 13bd 8201 4ebd 2839 1cbd
00000390: 5041 733d b06c 07bc 30f6 5f3c 3db2 c63d
000003a0: fa30 433e 284a 24bc 3df0 d33d da1f 39bd
000003b0: 94f2 0a3e 096a 223e 879b c6bc e3a1 08be
000003c0: b88f 023e dcec d43d e087 8e3d 15f9 cf3d
000003d0: d361 683e 3b1a 453e 78b0 60bd 17da e43d
000003e0: b60f c13c be67 f7bd 52e6 49bd c210 d73d
000003f0: 523c f3bd bd45 053d 774c 93bd b2e6 38be
0.06959761 -0.05584173 0.0025525908 0.012497679 -0.028155627 0.09139709 0.0917541 -0.08353253
-0.15003428 0.116365395 0.04182771 0.10281106 0.06847503 0.031428356 -0.008692633 0.06878072
-0.0062995646 -0.011398304 -0.039485205 0.038408898 -0.07934083 -0.07984051 0.06833628 0.101737075
0.06487065 -0.042707548 0.06723628 -0.06775358 0.16174127 0.051620636 -0.094300106 0.13918307
0.10192767 0.16604143 0.068392605 0.04330617 0.060111906 -0.08619718 -0.0014170737 0.009601514
-0.07647919 0.07455408 -0.13846841 0.0063712294 0.092511505 0.03198097 -0.10608442 -0.1775137
0.09856915 -0.02332823 -0.019220293 -0.08723688 -0.11491825 -0.12171443 -0.15320276 -0.06351001
-0.00051287015 0.20023204 -0.03053815 0.16678025 -0.014757997 0.12161985 0.08455081 -0.06561329
-0.22663395 -0.13367167 0.093506806 -0.059536267 0.009382665 -0.059289146 -0.10402955 -0.06425413
0.10577107 -0.01029785 -0.017716335 0.13373199 0.09861087 -0.019669082 -0.03374288 0.015484644
0.03160928 0.12359451 0.15983935 0.08684248 0.100078 0.02483378 -0.004516722 -0.06479609
0.11739468 0.14165482 0.04625945 0.08358669 0.16096899 -0.11599725 -0.084189996 -0.033428237
0.041884184 0.0014210908 0.10577673 -0.12845536 -0.14949477 0.0091774445 0.11911379 0.07179164
0.048164263 0.094177105 -0.087042674 0.0038284368 0.05263435 0.022452245 -0.01485192 0.086391926
0.035204146 -0.056593742 0.033451643 -0.0470984 -0.04293031 -0.13850547 -0.05168363 -0.19636944
-0.06120927 0.024425425 -0.07508556 0.16371956 -0.03142275 -0.11453498 0.016937036 0.11178033
-0.03520405 -0.009873195 0.0058807596 -0.16543 0.016607534 0.03061125 -0.094489686 0.14025378
-0.02491397 -0.10306079 -0.14199944 -0.14284186 -0.039071 0.09650682 -0.0120564215 -0.03973708
0.08157348 -0.096821666 -0.07915003 0.0041417014 -0.074927725 -0.035192512 0.040500235 -0.041666176
0.039826795 -0.052678756 -0.1525233 -0.008600013 0.15552834 -0.096629634 -0.019385323 0.049906388
-0.024722911 0.039655536 -0.09762418 0.026843883 -0.12958993 0.17785487 0.09197607 0.013561639
0.025073502 0.008531351 -0.07636117 -0.079316154 -0.05677899 -0.04038034 -0.036232106 -0.104751945
-0.01746933 -0.061770976 -0.0431724 -7.926664e-05 0.04862703 0.03164134 0.04486457 0.10093416
0.021953074 0.095504135 -0.13176492 -0.049926676 -0.13543883 -0.06925466 0.0095309 -0.011773533
-0.07980401 0.12312439 -0.05616884 0.023730638 0.06482815 -0.07718523 0.014889255 0.17563663
-0.059856527 -0.025546093 -0.06722508 -0.025743308 0.009576086 -0.16327517 0.012368975 -0.1505458
0.0629793 0.06488682 0.015808815 -0.056683958 -0.16074401 -0.008924034 -0.065619774 -0.1376566
0.01197296 0.16104855 -0.047169164 -0.00964417 -0.009087919 -0.13317585 0.10611624 0.048974905
-0.09497366 -0.03591996 -0.050294407 -0.038140446 0.05938846 -0.008265659 0.0136695355 0.09701965
0.19061652 -0.010027446 0.10348556 -0.04519639 0.13569099 0.15860762 -0.024244083 -0.13343005
0.12750137 0.1039674 0.0695951 0.101549305 0.22693567 0.19248287 -0.054855794 0.1117441
0.023567062 -0.12080334 -0.049291916 0.10501243 -0.118767396 0.03253721 -0.07192319 -0.18056753

feedfwd_stack.4.weight f4 [256, 256]
00000000: c892 9bbd 4ed5 61bb a9e4 a7bc 0734 313d
00000010: 1af9 8bbd 0edf 99bd 745b 003d be4e ab3c
00000020: 341c ebbb e334 723d 6ef4 9e3d d01b d1bc
00000030: 8eca be3a ceed 9c3d 4bd5 96bd 0ab5 8c3c
00000040: 37fa ff3c 32b5 5d3d 0f8e f1bb 715a c1bb
00000050: cbd3 c03b 6c1c d03c 7ac9 003d a9a6 a4bd
00000060: ed21 6bbd 6c26 5f3d 0424 93bd 01de 75bc
00000070: bf96 c2bc 7419 f5bc 4ad9 2c3c 87d2 eebc
00000080: 6d23 c53d 4276 303d 6a5e 29bc 5576 c13b
00000090: bd19 a0bd 8a6a 27bc ffeb a9bc 449f f83c
000000a0: 24a0 98bc b9b1 82bc 9f49 7c3d 1a26 5e3c
000000b0: eeff c53c 1f80 073d 7b02 573c 3c21 12bd
000000c0: 6f67 ee3c b2d6 4ebc 5133 0d3d b898 b2bc
000000d0: ec9e 363d 80b1 ab3d ab67 e43c 3d16 cdbc
000000e0: 71d7 c53c 0fbe dabc c176 943d bac9 f8bc
000000f0: 54ef 15bc ab9f 683d 2835 003d ea89 e5bc
00000100: 91d2 a93c 69ca d2bc bb97 053d b0bb fcbc
00000110: 2dec 4b3d 089d 28bd 4ea0 91bc 4e5a 863b
00000120: 3e46 e43b 1aea 093d d15c a23c aaac 093d
00000130: bf66 f7bc fab3 073d 5fa8 42bc 0024 52bd
00000140: b8af 70bc b56a 553c 676f f23c ac4e 3b3d
00000150: 1ea5 483c b1a0 243d 69fa 473d 1a3e a3bc
00000160: befc 5abc 3b78 8b3d 9aab cb3d 0a01 af3d
00000170: 36eb 053d dd09 ff3b 9024 4c3d 6108 88bd
00000180: 0462 033c 62dd 41bd c7a4 173d 2c14 57bb
00000190: a486 2abd a41e 563b adc1 85bc 17c0 6f3d
000001a0: 798b 8d3c 3d6d 62bd 02f0 0b3c c130 17bd
000001b0: 034b 103d 68ee 423d cd63 853d 9037 0e3c
000001c0: 8ca9 703d 5077 613d 7c5f ac3d e8d2 373d
000001d0: 7042 d63d 2879 233d a82e fcbc eed5 1e3c
000001e0: b5dc 6fbd 6809 78bb a0e1 3e3c 5817 26bc
000001f0: ed85 2c3d 911b 59bb e00e 49bc 766e 043d
00000200: 76c4 9cbc 55ef 91bc efad 493d 5c21 bf3c
00000210: 1160 11bd 7f3a b43d 1fff 0fbd eb82 f7bd
00000220: 8e72 633d ceaa 993b 7408 0fbd d65e 0c3d
00000230: 21d1 d3bc 1079 86bc 34ae 29bc 9018 37bc
00000240: 04c0 45bd 524d 0d3d 9301 3e3d 4e49 403d
00000250: f225 a73c d72a 0abd 3338 993c 5cda b9bb
00000260: ad9b 7cbd 1028 103d 7a58 46bc 6647 9e3d
00000270: cf43 49bc d6dd a63c f485 213c 2fae 20bc
00000280: 4ee5 4d3c 2757 f4bc 3626 713b 3fe8 09bb
00000290: 6dfe 5e3d b758 773c 169e 0a3d 687b debc
000002a0: bcbe ea3c 4bbe f83c bf66 e839 ce69 a63c
000002b0: ef61 d23c 4587 183c c68a 053d 56ea 353c
000002c0: f8c5 f03b 3589 5e3d 38de 663c ea82 55bd
000002d0: f8c4 20bd 125b 5f3d 9dc5 6fbc 96dd 62bd
000002e0: 3bcd 843d 6165 1d3a 5de3 34bc 4e2a 8fbd
000002f0: 5709 9b3d 030d 703d 08bd f6bc 22bf 693d
00000300: 2023 533d 0737 943c d506 c0ba c7ed c93a
00000310: 8d6e 25bb 90ee e73c 2360 873c f805 273d
00000320: fb76 44bd fda7 f33c 2eb5 12bd e632 68bd
00000330: da75 863d 1b0b 8abb 858b 98bd 72f6 9ebb
00000340: 7f1d 3fbc c364 d53c 46c5 2b3d 7c01 b83c
00000350: 19e0 c63c b86e 0bbd e138 133c 6343 debc
00000360: 071e 84bd 3ac5 dd3c 287c e33d 6df1 fb3c
00000370: 1c56 79bd 128e 433d 75e3 0abd da45 afbb
00000380: 0e62 0c3d 52ea e83c 629f c0bb 80a5 6e3c
00000390: d0c7 2b3d bb44 783d 2214 9e3d c651 89bd
000003a0: 1778 4bbd 0a7d 14bd 1377 81bc 7460 b7bc
000003b0: 8137 a73d 973b b7bc f045 b2b9 7bec 04bd
000003c0: b728 fcbc 601c 9fbd 8b67 58bc 5cd7 93ba
000003d0: f15c 423c 4b6f 4ebd 9c4c 563d 1f27 8d3d
000003e0: 621e a93c 778f b33d 0aa4 d03d 1999 b93b
000003f0: 960e 833d c31a 7e3d 3449 023d 778b 57bd
-0.07596356 -0.0034459415 -0.020494776 0.043262508 -0.06834622 -0.075132474 0.031337216 0.02091157
-0.007174993 0.059132468 0.07761465 -0.025525957 0.0014556216 0.07662545 -0.07364901 0.01717617
0.031247241 0.05412788 -0.007371671 -0.005900674 0.0058846227 0.025404178 0.031442143 -0.080396004
-0.0574054 0.05448 -0.07184604 -0.015006543 -0.023753522 -0.029919364 0.010549853 -0.029153122
0.096258976 0.04308153 -0.0103374515 0.005903999 -0.07817409 -0.010218272 -0.020742415 0.030349381
-0.018631049 -0.015953885 0.061593648 0.013558889 0.024169888 0.03308117 0.01312315 -0.035676226
0.029102055 -0.01262443 0.034472767 -0.021801338 0.044585153 0.08383465 0.027881464 -0.025035018
0.024150582 -0.026701955 0.07249213 -0.030369628 -0.009151299 0.056792896 0.031300694 -0.028019864
0.020730289 -0.025731282 0.032615405 -0.030851215 0.04978578 -0.04116538 -0.017776635 0.0041001206
0.0069663813 0.033670522 0.019819649 0.03361193 -0.03020036 0.033130623 -0.011880963 -0.051303864
-0.014690332 0.013025929 0.029594136 0.045729324 0.012246398 0.04019231 0.048822794 -0.019927073
-0.0133659225 0.068100415 0.0994484 0.0854512 0.032695018 0.007783158 0.049839556 -0.06642223
0.008018974 -0.047330268 0.03702238 -0.003281842 -0.04163231 0.0032672072 -0.016327703 0.0585328
0.01727842 -0.05527996 0.008541109 -0.03691173 0.035227787 0.047590643 0.06513176 0.008680239
0.058755443 0.055045426 0.0841665 0.04487887 0.10461891 0.039910465 -0.030783966 0.0096945595
-0.058560092 -0.0037847403 0.011650473 -0.0101374015 0.04211991 -0.0033128003 -0.012271613 0.032331906
-0.019136649 -0.017814318 0.04923814 0.023331337 -0.035492007 0.0880022 -0.03515541 -0.120855175
0.05552917 0.004689551 -0.03492017 0.03427013 -0.025856556 -0.016415149 -0.010356475 -0.01117529
-0.048278823 0.034497567 0.04638822 0.04694491 0.020403836 -0.03373226 0.018703556 -0.0056717824
-0.0616719 0.035194457 -0.012106055 0.07728462 -0.012284233 0.020369451 0.009858597 -0.009807154
0.0125668775 -0.029826714 0.0036796457 -0.002104297 0.054441858 0.015096835 0.03384217 -0.027158454
0.028655402 0.030364176 0.0004432704 0.020314123 0.025681464 0.0093095945 0.032603048 0.011103233
0.0073478185 0.05433007 0.014091067 -0.052126803 -0.039250344 0.05453021 -0.014634517 -0.055387102
0.06484457 0.00060041813 -0.011040536 -0.06990491 0.07570141 0.05860616 -0.030119434 0.057067044
0.05154717 0.018092645 -0.0014650474 0.0015405946 -0.0025242895 0.028311998 0.016525334 0.040777177
-0.04796503 0.029743189 -0.035817318 -0.056689166 0.06565447 -0.0042127497 -0.07448486 -0.004851156
-0.011664747 0.026049023 0.04193618 0.022461645 0.02427678 -0.034041137 0.008985729 -0.027131742
-0.0645104 0.027071584 0.11107665 0.03075477 -0.060873136 0.04774291 -0.033908326 -0.005348903
0.0342732 0.028432045 -0.005878375 0.014565825 0.041938603 0.06061242 0.07718684 -0.0670505
-0.049675073 -0.03625206 -0.01580385 -0.02238486 0.081648834 -0.022367282 -0.00034002913 -0.032452088
-0.030781133 -0.07769084 -0.01320828 -0.0011279392 0.011862979 -0.050399106 0.052319154 0.068922274
0.02064437 0.08767598 0.10187538 0.0056640026 0.063992664 0.06203724 0.031808093 -0.05262324

feedfwd_stack.4.bias f4 [256]
00000000: dd6a c3bb d2fb 593c bf4b cb3d c901 16bd
00000010: 706c a5bd 8888 37bc 330e 94bd e9cb 01bd
00000020: 5848 62bd 3fe9 cb3c 592c dbbc dd79 8ebc
00000030: a254 32bd b2b6 9abd 07a1 90bd 3fba 82bc
00000040: b245 46bc 3516 43bd 97ff 80bd 51c8 503d
00000050: 196c 46bd 07f8 f1bc 3793 213d a0ab 48bd
00000060: 9bdf 51bc 5d2c 0b3d f6d2 293e ed92 c4bd
00000070: 2d9c 6fbe 0d7c 3ebc e3a1 22be bf85 303d
00000080: ca81 90bd 55bd d5bc 3ea6 0bbd 07fe bfbd
00000090: 4bbf 4bbc 785e 93bd 65d2 80bd 7360 123c
000000a0: 9e51 f3ba dacb 10be 1c7b 6b3d a531 9bbd
000000b0: 54a2 a13b 352f 38bd df96 c1bd af59 653c
000000c0: c030 023e fc70 26bd 175c c7bc c737 903a
000000d0: 5ed4 aebc dd27 8abc cfa8 f93c d733 2abe
000000e0: e56d 603d 747a a4bd b3a5 ab3d 7eea c43d
000000f0: 8b31 a83d 3020 b5bd 117d 043e dc96 493d
00000100: cebe e9bd 8d9a 7bbc 832d a03b c5e1 123d
00000110: f715 073e 1ac8 86bd 71f4 88bd 7c19 af3b
00000120: 6f46 ac3d bab3 453d 1e27 7cbd 0202 42bd
00000130: 1135 4fbd fc09 ddbd 574b 153c 962a 3e3d
00000140: 48c6 cbbd b0db 02be 766b cb3c 0ec4 70bd
00000150: fa07 a4bc e01e 83bd 3a0c ae3c 1af0 d63c
00000160: 5408 ff3c 1d30 7ebd 76ad 8b3d c2b8 b4bd
00000170: 8c9f 043c f35c 58bd 5aba e53d 8962 853d
00000180: 32d2 2b3d 30ee c23d 4ef0 95bd 97e7 0abd
00000190: 7d16 d13d 6dd6 113d 849f 1fbc d0f6 143e
000001a0: 09bb 90bc 09f6 093d 1a59 7bbc 7a54 d439
000001b0: 1dd7 aa3d d19e 21bc bceb 8ebc 7d82 6fbd
000001c0: 7ee2 dbbc 84eb a3bd 43d1 083e 9a27 5fbd
000001d0: 6688 5a3b 4bd8 dd3c 56a1 af3d 8df4 9dba
000001e0: 1a99 5e3d 2105 b4bd 9a98 d43d b3f1 6fbc
000001f0: bb45 e1bd 333b e3bc 6120 133b 6a96 bdbd
00000200: 9993 a83c 0780 a4bd 57b5 a63c edfe 9d3c
00000210: 85b9 aa3d 747a f93b c416 22bc c3d0 7d3c
00000220: 4bff 1cbe 8765 623b cfc5 33bb b62a bf3c
00000230: 5376 0e3c 7108 eb3b 6341 25bd 5a52 25bd
00000240: 2418 0d3e db57 16bd bebf acbd 284e 443c
00000250: 8a4e aa3d 75a1 c43d 1a80 a9bb ce2c ed3b
00000260: fc03 c1bd 37ec 4fbd eb88 94bd 6ed1 05bd
00000270: 09f5 a1bd 13db 1ebc 603b 9a3d cff2 083d
00000280: ec41 b93c 5957 13be 5103 dbbd 8c2f 483d
00000290: 6f8b ce3c 6bf0 14bd 4f1a aabc 5646 7fbd
000002a0: b790 db3d c762 253d d54c c13b 7871 01bd
000002b0: 3f4a d1bc 38e4 b13b b183 50bd d812 06bd
000002c0: f0e6 8abd 3542 c03c d875 f6bc 7981 79bc
000002d0: 2ba5 01bc abc3 84bc 54e1 0e3e 1732 9a3a
000002e0: 7418 b8bd 2c68 71bb fed8 76bd 7656 c5bc
000002f0: ff48 7bbd 6e3e b43c b2be 15bd 9727 353c
00000300: e227 95bd dc78 713d 49ac a63c 779c 463d
00000310: a152 323c a735 c13d dc15 9b3d 3b4e 7a3d
00000320: ce2d c33d 35a9 073d ec05 97bd 492e a4bc
00000330: 9bff 1fbe 78c4 7a3d 6125 c3bd f89b 323d
00000340: 6459 55bd 6e80 e13d d60e 9abd 3134 b83d
00000350: 1df7 9c3d e88f 31bd aa6d 18bd 0b6b cc3c
00000360: 872c 7fbd 84d8 c03c 034a 9c3d 7d27 b53d
00000370: 4291 cdbc 7a77 ac3c c408 3f3d ce6a 34bc
00000380: 2e46 a63d 29db f0bc f322 3bbd df26 aebd
00000390: 6b12 7c3d 6636 9d3c c607 e93d 8a95 f6bc
000003a0: 462d 023d 0d99 babd 644e b9bd 84f2 993d
000003b0: 1678 653d 3547 91bd 8832 793d 4038 14bd
000003c0: 8622 9bbc edfd 5d3d 6358 7b3d bf52 1c3d
000003d0: 743f 0f3d 705a 6ebc dc92 adbc d064 003d
000003e0: b017 bbbb 5cd5 393d 2577 20bd aad2 a03b
000003f0: 9fa7 1e3b 909b b1bd 1f8c 4e3d e09b 5f3c
-0.005963667 0.013304668 0.09926557 -0.036622796 -0.080773234 -0.011201985 -0.07229271 -0.031688605
-0.055244774 0.024891494 -0.026754545 -0.017392093 -0.043537743 -0.075543776 -0.070619635 -0.01595795
-0.012101578 -0.0476286 -0.0629875 0.050972287 -0.048442934 -0.029537214 0.039447036 -0.0489918
-0.012809659 0.033977855 0.16584381 -0.09598336 -0.2339942 -0.011626256 -0.15882067 0.0430963
-0.07056005 -0.026091257 -0.034094088 -0.09374624 -0.0124357445 -0.07195753 -0.062901296 0.008934128
-0.0018563753 -0.14140263 0.057490453 -0.07577828 0.004932681 -0.044966895 -0.094526045 0.013998433
0.12713909 -0.040635094 -0.024335904 0.0011002951 -0.021341499 -0.016864711 0.030476002 -0.16621338
0.054792304 -0.080311686 0.08381214 0.09615038 0.082125746 -0.0884403 0.12938334 0.049216136
-0.11413346 -0.015356672 0.004888238 0.03585984 0.13191973 -0.06581135 -0.066872485 0.005343614
0.08411872 0.048267104 -0.061560743 -0.047365196 -0.050587717 -0.1079292 0.009112201 0.046427332
-0.099499285 -0.12779117 0.024831515 -0.058780722 -0.020023335 -0.06402373 0.021246064 0.026237536
0.0311319 -0.062057603 0.068201944 -0.08824302 0.00809468 -0.05282302 0.11217184 0.06512935
0.041948505 0.09518087 -0.07321225 -0.033912268 0.102093674 0.035604883 -0.009742621 0.14547276
-0.01766731 0.033681903 -0.015341068 0.0004049873 0.08341811 -0.009864525 -0.017446391 -0.058474053
-0.026841398 -0.080039054 0.13361077 -0.054481126 0.003334546 0.027080676 0.08575694 -0.0012051031
0.054345228 -0.08790041 0.10380669 -0.014645028 -0.10999628 -0.02773819 0.002244972 -0.09257205
0.020578193 -0.08032232 0.020350141 0.019286597 0.08336166 0.0076134745 -0.009893123 0.015491667
-0.15331762 0.0034545378 -0.0027431136 0.023335796 0.008695203 0.007172637 -0.04034556 -0.04036174
0.1377874 -0.03670488 -0.084350094 0.0119815245 0.083157614 0.09601108 -0.0051727416 0.007238007
-0.09424588 -0.05076238 -0.072526775 -0.03267043 -0.07908065 -0.009695786 0.07530856 0.033434685
0.022614442 -0.14388789 -0.10693992 0.04887347 0.025212971 -0.036362093 -0.020764498 -0.062322937
0.107209615 0.040377405 0.0058990517 -0.031602353 -0.025548099 0.005428817 -0.05090684 -0.032732815
-0.06782329 0.02346907 -0.03008549 -0.015228623 -0.007912914 -0.016206583 0.13953143 0.0011764196
-0.08989039 -0.0036835773 -0.060265534 -0.02408908 -0.06134891 0.022002425 -0.036558814 0.011056802
-0.07282998 0.05895315 0.020345824 0.04848906 0.010883958 0.094340615 0.07572529 0.061109763
0.09530221 0.033120353 -0.073741764 -0.020041602 -0.1562485 0.061222523 -0.09528614 0.043605775
-0.052087203 0.11010824 -0.07522361 0.0899433 0.076643206 -0.04335013 -0.03721396 0.024953386
-0.062298324 0.023540743 0.07631304 0.088454224 -0.025093678 0.021053065 0.04663922 -0.011011792
0.081188545 -0.029401379 -0.045687627 -0.08503508 0.061541002 0.019190978 0.11378436 -0.030100603
0.031781457 -0.09111223 -0.09048155 0.07516959 0.056022726 -0.0709366 0.060839206 -0.036186457
-0.01893736 0.05419724 0.06136359 0.03816485 0.034972623 -0.014547929 -0.021188192 0.031346142
-0.005709611 0.04536949 -0.039176125 0.0049079256 0.0024208797 -0.08672249 0.0504266 0.013648003

feedfwd_stack.6.weight f4 [128, 256]
00000000: 8d45 bb3c 8376 85bd 2123 ce3c 890f 3e3d
00000010: df73 c7bc 914a dc3c 315e 4d3d 33e6 b9bc
00000020: d6eb 65bd 1901 293d de68 25bc 4312 47bc
00000030: 8cda 463c f193 b6bb 3255 b7bb c444 673b
00000040: 2967 733d d576 f9bc e1bd 463d 4f4c 5c3d
00000050: d7b8 7b3c 4e1f 383d 1531 00bd 4707 703d
00000060: 363b 0ebd ffcc 9b3c 4b4b 54bc 0773 d73c
00000070: 8757 003c f8a6 77bc c37f c13c 6290 dcbb
00000080: 3821 db38 b667 41bd 0fb8 2ebd ffe3 c8bb
00000090: 70c6 53bd be7c b93b eb31 563d c203 e3bc
000000a0: 5089 16bc 1781 48bd 5afb 5cbd 448b 44bc
000000b0: 79ab 13bc 1750 95bc 103d 83bd cf9c bbbc
000000c0: aeb1 35bd dc2f d0bb 733b 66bd 4b4d 123d
000000d0: 25af 383d c73d 84bd 95f4 08bd b7ea a7bb
000000e0: 06b7 2e3b 8494 6e3d 7162 8cbc 353b bd3c
000000f0: ec9d 1a3d efe5 fbba c584 23bd 23e4 95bc
00000100: f909 6fbd 2f3e 0ebd a763 85bc 06d4 623d
00000110: acdd a13b b796 1fbc 30a4 3ebd 523a 7e3d
00000120: 6acb 53bc 7ea6 1abd c1e7 49bd ca0a 0a3c
00000130: 7e25 c0bc d8d9 413d 8ce9 c43c cb18 c3bc
00000140: 8e87 3d3c 0b50 3d3d acae 5dbd ee4a 56bd
00000150: 0091 4dbd 5af0 abbc 3897 c7bc f09b fbbc
00000160: c896 a53c 22fc 81bc c666 ff3c 98b3 10bd
00000170: 0e3d 20bd 26d4 a5bc 0ae7 61bd bb01 c5bc
00000180: cf9a 70bd 15e8 de3c 4c6c 0c3d 20c0 40bd
00000190: 2b2c 323d 9eec afbc fa2e 4dbd 61dc d7bc
000001a0: ac92 e33b c071 04bd 0275 423d d3b7 363d
000001b0: b908 a3bc 18ae d2ba 9bfb 343d e46c 5cbd
000001c0: eb0f d9bc 7cec 0fbd 6b0c cb3c a681 743d
000001d0: de86 20bd d227 cabc 646a a63c 00d4 baba
000001e0: 92fa bbbc 4333 bfbc c435 103d c04a 033d
000001f0: 6b16 1a3b 8d32 d43c 5198 813c 1d1f a5bb
00000200: 809f 323d 87ab 19bd 13f0 433d 1695 243d
00000210: 5b13 613d bcf6 433c a384 52bd 5055 003d
00000220: cb1d e1bc 0ea7 1ebd 4780 953c 6708 8b3d
00000230: 6d93 543d 96a3 abbc 3d17 573d f696 18bd
00000240: 24ad f2bb cb91 963c 4e71 743d 4092 02bd
00000250: 6ee8 643d 5550 563d 3ef0 eabc b251 17bd
00000260: d0e3 2ebd 781f 3cbd 35ad 643d cf2a 333d
00000270: 49ee 33bd b375 45bd 6374 4f3d 0dcd 323c
00000280: 2bdf f5bc 2067 febb fbe5 383c 1994 54bd
00000290: 708f 8b3d e540 23bc a03e 31bd 3f91 0e3d
000002a0: adec 4cbd b4f0 e73c fda9 73bc 229a a8bc
000002b0: f439 9e3c 45ba 383d ca02 2c3d d648 7fbd
000002c0: 024c 583d 6219 56bd 65f2 d5bc 170b 44bd
000002d0: fb0a 5ebc f986 c03c dbea f53c 1a13 26bc
000002e0: 0b8b 0b3d c011 5e3d 8232 5abd 9960 89bb
000002f0: e807 69bd f7fc 1b3d 02d8 84bd 73ad 813d
00000300: 0d07 d33c 04ed ec3c c2ff 25bd e2a0 4abd
00000310: 7d27 083d e024 a43c b10b 713c 2e43 533d
00000320: 19a8 62bd 96c8 0c3d 5002 dcbc 4851 e0bb
00000330: edd9 103d c82a 803c 83f5 dd3c c1e7 193d
00000340: f2fd 603b 28a5 4f3d f01c 753d 00a2 1dbd
00000350: 87c1 e93c cae8 a5bc d821 6bbc c066 1ebc
00000360: 0f2a 3cbd c748 703d 3bf6 65bd 9cf1 c53b
00000370: 54e1 83bc 7f78 de3c 4d37 923c b124 cfbc
00000380: 6f89 26bd d266 9b3c 07cc b43c 26dd 123d
00000390: 4cf1 53bd e7e0 e439 3296 6cbd 8899 163d
000003a0: 0078 263d 3a29 08bd e849 173c 68dd e63c
000003b0: 6a8e 2e3d 9551 26bd 4f3c d0bb 06fc 343d
000003c0: e41e e4bb bb4e 55bd 9c48 5abd ccb7 72bc
000003d0: 64e4 0cbd 9670 61bd 340b 073d c495 b63c
000003e0: 96b8 9ebc 45f7 f1bc ee98 15bd 5aff 85bc
000003f0: e22c 5cbd d675 a7bc 868f 6ebd 06bd ea3c
0.022860313 -0.06516745 0.025163235 0.046401534 -0.024347244 0.026891025 0.050138656 -0.022692775
-0.056133114 0.041260812 -0.010095803 -0.01215035 0.012137067 -0.005571835 -0.005594873 0.003528879
0.059424553 -0.030452171 0.048520926 0.05378371 0.0153638935 0.04495173 -0.03129681 0.05860069
-0.034724437 0.019018648 -0.012957404 0.026299966 0.007833368 -0.015115492 0.023620492 -0.006731079
0.00010448921 -0.047218047 -0.042656 -0.006130695 -0.051702917 0.0056606224 0.0522937 -0.027711753
-0.009188011 -0.048951235 -0.053950645 -0.011996094 -0.00901305 -0.018226666 -0.06408131 -0.02290192
-0.0443589 -0.0063533615 -0.05620904 0.035718244 0.045088906 -0.064570956 -0.033436377 -0.0051244157
0.0026659383 0.058247104 -0.017136784 0.023099521 0.037748262 -0.0019218306 -0.03992154 -0.01829726
-0.05835912 -0.03472727 -0.01628287 0.055377983 0.0049397554 -0.009740523 -0.0465433 0.062067337
-0.012926916 -0.037756436 -0.049293283 0.008425424 -0.023455378 0.047326893 0.024037145 -0.023815533
0.011567963 0.046218913 -0.05412166 -0.052317552 -0.05018711 -0.020988632 -0.024364099 -0.030714005
0.0202135 -0.015867297 0.031176936 -0.035327524 -0.039120726 -0.020242762 -0.055151977 -0.024048677
-0.058741387 0.027210275 0.034282967 -0.047058225 0.043499153 -0.021475133 -0.05009363 -0.026350202
0.006944975 -0.032335043 0.04747487 0.044608902 -0.01990162 -0.0016073612 0.044185262 -0.053814784
-0.026496848 -0.03513764 0.024786195 0.059693955 -0.03919112 -0.02467719 0.020314403 -0.0014253855
-0.02294663 -0.023339873 0.035207525 0.03205371 0.0023511897 0.02590301 0.0158197 -0.0050391094
0.043609142 -0.037517097 0.047836374 0.040181242 0.0549501 0.0119606815 -0.051396023 0.03133136
-0.027480027 -0.038733535 0.018249644 0.06788712 0.05189841 -0.020952027 0.052512396 -0.037253343
-0.007405894 0.018380066 0.05967837 -0.031877756 0.055885725 0.052322704 -0.02867901 -0.036943145
-0.042697728 -0.04592845 0.055829246 0.043741997 -0.04392842 -0.04820795 0.050648104 0.010913146
-0.030013641 -0.0077637583 0.0112853 -0.05189905 0.06814468 -0.0099642025 -0.043272614 0.034806486
-0.0500304 0.028313018 -0.014872071 -0.020581309 0.019314744 0.045099515 0.041994847 -0.06232532
0.05280686 -0.0522703 -0.02611656 -0.04786214 -0.013552423 0.02350186 0.030019214 -0.01013639
0.03406815 0.054216146 -0.053270824 -0.0041924235 -0.056892306 0.038083043 -0.06486513 0.06331911
0.025760198 0.028921612 -0.040527113 -0.049469836 0.033240784 0.020037115 0.01471226 0.05157774
-0.05533609 0.03437098 -0.026856571 -0.006845627 0.03536408 0.0156454 0.027094608 0.037574533
0.003433105 0.050694615 0.05984205 -0.038484573 0.028534664 -0.020252604 -0.014351331 -0.009668052
-0.045938548 0.058663156 -0.056143027 0.006040765 -0.016098656 0.027157066 0.017848635 -0.02528605
-0.04065841 0.018969927 0.022069944 0.035855435 -0.05174379 0.00043655114 -0.057760425 0.036767513
0.040641785 -0.03324244 0.009233929 0.028181747 0.042616285 -0.040605146 -0.0063548456 0.04418566
-0.0069616903 -0.052077036 -0.053291902 -0.014814328 -0.034397498 -0.05503901 0.03296967 0.02228821
-0.019375127 -0.029536853 -0.0365228 -0.016357113 -0.05375374 -0.02044193 -0.058242343 0.028654587

feedfwd_stack.6.bias f4 [128]
00000000: 49b8 01bd 020f 74bc 799e 9abd e262 21ba
00000010: fd9c fabc 4437 43bd 5fa4 cebd ee9a 493d
00000020: 73d6 9d3d 26d2 b4bc 97f8 77bd 1d84 7d3d
00000030: 7d97 013e 09c5 5fbc 1ca6 07bd 42e7 9d3d
00000040: e229 2dbd d765 adbd 4caa 43bd 0109 88bd
00000050: 85b9 c3bb 9169 de3c 8b2f 10bc d04a 89bd
00000060: a688 07bd 4765 3fbc b4f3 78bd 1971 8c3c
00000070: 0a3b 043d 213f 90bd 3691 d9b9 1804 9f3c
00000080: ceda b33c f348 c83d 331d b13d cc02 7dbd
00000090: f56d 9b3d f47b fbbb a5f2 123d 41c7 a9bc
000000a0: 5e9f bdbc 5ce2 62bd e5c7 d53d 25e6 263d
000000b0: bc49 aa3c ce61 00bd f5d8 483d 03fa 30bd
000000c0: f853 a8bc 0bde 87bd db31 64bb 496f 273d
000000d0: 7b25 43bd 39b6 b2bd 226f c2bd 8f60 dc3c
000000e0: 0ced c73d 03a9 8dbd 0cb8 7abc bbcc 98bc
000000f0: eed5 963c 22a8 953d 1f9e d8bc 08b1 1bbd
00000100: 8a9a abbd 6240 c1bd 35cd 893d 91ce 48bd
00000110: 5880 4c3c c8dc 6cbd 91e4 f0bd c0d7 8fbd
00000120: 2ae4 10bd 8ed6 c73d 6467 403d ff0b bbbc
00000130: caf8 733d cef6 1f3e ae4e c0bb f346 a3bd
00000140: 1514 6d3c 3e56 13bd b2ac 5b3d d97e b7bd
00000150: 6462 de3c f9b2 5ebd e0f8 ab3d 750b 2c3d
00000160: 773f 533d c786 a33c e2d7 bcbd af71 e8ba
00000170: e126 c7bc 0733 94bd 69a7 c3bc 1976 9abd
00000180: 0e47 d0bd 6466 db3c eda2 c53b c6b0 92bc
00000190: 53b9 b73d 3ba0 243d 981e 5ebc 01e9 6dbd
000001a0: bf68 ffbd 73fe b1bc a7cf 51bd 34e1 8dbd
000001b0: c118 8e3d fa09 993d 8fe0 3cbd 4e2e a1bc
000001c0: dd96 8e3c 5b48 e33c e7e1 2a3a ab7b b33d
000001d0: 4c12 723d 8537 77bd 493a 0fbd 510e cabc
000001e0: 677e 58bd 4ec9 853d 403a 88bd 0ffe 3abd
000001f0: 6497 503d 5ecc c83d e10c fcbc 1413 763c
-0.03166989 -0.014896156 -0.075497575 -0.0006156397 -0.030592436 -0.047660127 -0.10089945 0.049220018
0.077069186 -0.022072863 -0.060539808 0.06189357 0.12655444 -0.013657817 -0.0331174 0.077101246
-0.04227627 -0.0846669 -0.04776983 -0.06642342 -0.0059730434 0.027149947 -0.008800398 -0.067037225
-0.033089302 -0.011681861 -0.06077929 0.017143773 0.032282867 -0.07043291 -0.00041497656 0.019411132
0.02195492 0.09779539 0.086481474 -0.061770245 0.07589332 -0.0076746885 0.035875935 -0.020724894
-0.023147281 -0.055391654 0.104385175 0.040746827 0.020787112 -0.031343274 0.04903503 -0.04320718
-0.020547852 -0.06634148 -0.0034819755 0.040877614 -0.047643166 -0.087261625 -0.09493853 0.026901511
0.0976201 -0.06917002 -0.015302669 -0.01865231 0.018412556 0.073074594 -0.026442586 -0.038010627
-0.08379085 -0.09436108 0.06728593 -0.049025122 0.012481771 -0.05782774 -0.117623456 -0.07023573
-0.035373844 0.0975772 0.0469736 -0.022832869 0.059563436 0.15621492 -0.0058687543 -0.07972517
0.01447012 -0.03597092 0.053631492 -0.08959741 0.027146526 -0.0543699 0.083970785 0.042003114
0.051574197 0.019961728 -0.09220864 -0.0017734076 -0.024310531 -0.07236295 -0.023883538 -0.075420566
-0.101698026 0.026782222 0.006031385 -0.017906558 0.08970895 0.04019187 -0.013557099 -0.058083538
-0.124711506 -0.021727776 -0.051223423 -0.0692772 0.06938315 0.07472606 -0.046112593 -0.0196754
0.017405922 0.027744463 0.00065186474 0.08763822 0.05909948 -0.060355682 -0.034967694 -0.02466503
-0.05285492 0.065325364 -0.06651735 -0.045652445 0.050925627 0.09804605 -0.03076786 0.015019197
