acados_mpc/acados_mpc/DEQ_model50k.pt (torch, 89599 bytes, 6 tensors)

mon.linear_module.U.weight f4 [100, 13]
000000 42 59 2f 3e c6 a7 8c 3e a9 84 4f be 10 54 8e 3e
       0.17123893 0.2747175 -0.2026545 0.2779851
000010 76 d7 b1 3c 18 1c a9 bd 2b 1f b3 3e 32 c1 da be
       0.021709185 -0.082573116 0.34984717 -0.4272552
000020 9d a7 5e be 74 f3 0f 3e be 1f 94 bd 17 ec 05 bd
       -0.21743627 0.14057714 -0.07232617 -0.032695856
000030 10 1a cd be 07 45 43 be b3 43 70 3e 82 30 7b be
       -0.40058947 -0.190693 0.23463325 -0.24530223
000040 14 fc 8a be b9 65 59 bd e1 e7 d3 3b aa be 23 be
       -0.27145445 -0.053075526 0.006466851 -0.15990701
000050 b8 46 48 3f 3b b5 5b be 73 e4 1a 3e 89 43 d8 3d
       0.7823291 -0.21455853 0.15126209 0.10559756
000060 9e 5c 7e 3e 7a ee bb bd 5b ce 18 3e d0 c3 b8 3d
       0.24840018 -0.09176345 0.14922468 0.09021723
000070 02 2b 7c 3e bf f7 38 3e fc c3 b4 bd 56 ed 35 3e
       0.24625781 0.18063258 -0.088264436 0.17766318
000080 7f 4f 75 3f e2 88 4b 3c 1c b5 0c bf 1e 03 fe 3c
       0.95824426 0.012422772 -0.5496385 0.031007346
000090 5b 8f bc 3e 29 ab a8 3d c8 da ac be 65 e4 aa 3d
       0.36828122 0.08235771 -0.33760667 0.08344344
0000a0 8c c1 3e bd 22 d2 f6 3d a5 96 04 be 19 db d5 3c
       -0.0465713 0.120517984 -0.12948091 0.02610545
0000b0 e1 52 05 3e 05 c0 69 bf 16 61 62 be 0b db 8d 3e
       0.13019897 -0.91308624 -0.22107348 0.2770618
0000c0 28 6e 4c 3e e4 88 70 3a d1 9a ac 3d bb 30 7a 3e
       0.19963896 0.0009175672 0.084279664 0.24432652
0000d0 ac b6 cc bd 36 e1 bd 3e 5e f1 8a 3c 4b f0 9c 3d
       -0.099957794 0.37085885 0.016960796 0.0766302
0000e0 32 ac dc 3e 00 6f fc bd 96 c9 4d 3f f4 8e a1 3d
       0.43100125 -0.12325859 0.8038572 0.07888594
0000f0 d1 71 a6 be 99 4a ef bd 5d 4a 59 3d db c7 39 bc
       -0.3250871 -0.1168415 0.053049434 -0.011339153
000100 31 3b 51 be 41 3e 7a be 33 57 94 be e4 8f cd bd
       -0.20432736 -0.2443781 -0.28972778 -0.100372106
000110 83 51 e0 3d a4 3c 56 3c 4f 4b 48 3e 92 06 05 3f
       0.10953047 0.013075981 0.19559978 0.5196315
000120 29 49 0b bd 7b 14 c8 3d 82 50 a7 3d 12 83 4d 3e
       -0.034005318 0.09769531 0.081696525 0.2006953
000130 2b 7f 26 3e c2 cf 62 be 43 9d 57 3e f5 ad a6 3e
       0.16259448 -0.22149566 0.21056084 0.32554594
000140 aa 19 cf 3d 4a 87 58 3e 36 88 67 3e 75 fa 4d be
       0.10112317 0.21145359 0.22610554 -0.20115073
000150 51 e2 41 3e 4c 01 4c bf 56 ac 0f bd 08 2b 1a 3e
       0.18933989 -0.7968948 -0.03507646 0.15055478
000160 20 47 67 bc 6c 98 18 bc 75 9e c0 3e d4 73 9e 3e
       -0.014116079 -0.009313684 0.37620893 0.30947745
000170 9b 6b bd 3d cf 59 b7 be a1 40 eb bd d4 d2 92 3e
       0.0924904 -0.35810706 -0.11486936 0.28676474
000180 62 e8 86 be 19 d6 f3 3e 68 a7 b2 be 8b fd 1a bf
       -0.2634917 0.4762428 -0.34893346 -0.60543126
000190 61 21 fe 3d 13 ba 14 3e b0 bd 28 be 42 40 ce bd
       0.1240871 0.14524107 -0.1647861 -0.1007085
0001a0 9f 8a c6 3d c8 5c 5b bd ad 49 b6 bd b5 1c 8e 3d
       0.096944086 -0.05355528 -0.08900771 0.06939069
0001b0 e3 15 13 3e 59 ef d4 3e 42 18 88 bf 67 cd 6d bf
       0.14363818 0.41588858 -1.0632403 -0.92891544
0001c0 fa bc ff be db de 52 be 38 66 a4 3c 45 6d 34 be
       -0.49948865 -0.20592825 0.020068273 -0.17619808
0001d0 2e c4 87 be 5a bf 0e 3e 1c 68 2d 3d b5 de 73 3e
       -0.2651686 0.13940182 0.042335615 0.23815425
0001e0 9c 85 4e bd b9 69 94 be f3 c5 03 bc 1e 00 22 bf
       -0.05042039 -0.2898691 -0.0080428 -0.6328143
0001f0 0a 46 85 3f bf 0f 44 3b a4 c1 cf 3c 78 ec 64 be
       1.0411999 0.0029916612 0.02536089 -0.2235583
000200 64 31 1c 3e 8e 13 c0 3e a3 c0 69 3e 9b d9 b1 bc
       0.15253216 0.3751492 0.22827391 -0.021710208
000210 75 df 48 be 0e 24 8a 3d 91 98 1c bc c6 55 0e be
       -0.19616492 0.06745158 -0.009557859 -0.13899907
000220 12 01 ae bf 1a fc a6 be 35 4a 94 3f 77 67 2c be
       -1.3594077 -0.32614213 1.1585146 -0.16836344
000230 4d 24 c0 be 34 57 0b 3d dc e4 98 3d bd 52 99 be
       -0.37527695 0.03401871 0.074655265 -0.29945937
000240 78 07 7a bd 35 de 29 3e 32 e5 45 be e5 83 48 be
       -0.06104228 0.16588672 -0.19325712 -0.19581564
000250 aa 9d c8 bd ed d5 d8 be 40 e3 d3 3e a7 bb 08 3f
       -0.09795697 -0.42350712 0.41384315 0.53411335
000260 bd 81 cd 3c c2 d1 48 be 22 27 ad 3a 28 c4 66 3e
       0.025086278 -0.19611266 0.0013210515 0.22535765
000270 ad 8f 0d be 16 aa 8a 3d cf 56 41 3e 71 84 24 be
       -0.13824339 0.067707226 0.18880771 -0.16066147
000280 2b 96 dd 3d 50 0f 6a 3e 6b 18 a3 bf aa 1d f0 3e
       0.10819658 0.22857404 -1.2741827 0.46897632
000290 6b 5e 20 bf 38 7d 8b bc a7 d5 a3 be 7e c1 f3 3d
       -0.6264407 -0.017027482 -0.3199894 0.1190214
0002a0 be fb 96 bd 36 f1 2a be f2 b0 9d be c7 69 e5 bd
       -0.07372235 -0.16693577 -0.3079906 -0.11201816
0002b0 19 88 40 be 08 68 56 bc 65 bd f4 3d 0d ff 22 3e
       -0.18801917 -0.013086326 0.11950187 0.15917607
0002c0 d5 f2 4a 3f 65 be e8 bb 64 2c 21 3e 77 f8 a1 3d
       0.7927678 -0.007102775 0.1573959 0.07908719
0002d0 cb db 33 3d 8a f4 c3 bc 4d 40 15 3e 6d a5 c0 bc
       0.043910783 -0.023920316 0.1457531 -0.023516381
0002e0 bd 02 30 3e 4f dc 82 be c9 e2 62 be 46 1a 25 3e
       0.17188545 -0.25558707 -0.22156824 0.16123304
0002f0 27 86 59 be f9 3a 1a 3f b7 df d3 3d c9 e9 02 3d
       -0.21242581 0.60246235 0.103454046 0.031961236
000300 4d d5 d2 3d ec 4a 44 bd 62 dd 2d bd b2 70 2e 3d
       0.1029459 -0.047923014 -0.042447455 0.042587943
000310 1f 90 95 3e ea 7c 57 3b 0a 28 51 3e 4e a3 6f 3e
       0.29211518 0.003288085 0.2042543 0.2340214
000320 dd 76 b7 3d f9 b8 17 3f bf be 78 be 00 06 eb be
       0.08958218 0.5926662 -0.24291514 -0.45903015
000330 be d1 3d 3d 71 7c 4f 3d 3a 20 ef bd ac e2 cd be
       0.046342604 0.050655786 -0.116760686 -0.40212
000340 9d 0d 2f 3e 79 89 9b bc 24 88 15 be 85 97 c1 3d
       0.17095037 -0.01898645 -0.14602715 0.09452728
000350 67 17 a4 bc e3 58 9f bd b5 fb 42 3f ef c7 8c bd
       -0.02003069 -0.07780626 0.76165324 -0.06874072
000360 3f f7 fd bc 11 c4 e9 3d 14 36 9b 3e aa cc 64 be
       -0.031001685 0.1141435 0.30314696 -0.22343698
000370 1d 41 3f be 42 84 f8 3d 3c de 2c be bd f6 27 3e
       -0.18677182 0.12134601 -0.1688165 0.16402717
000380 0b e7 8e 3e 53 b4 6f 3d c2 83 00 bd 14 85 7e bf
       0.27910647 0.05852158 -0.031375654 -0.9942181
000390 68 e5 e9 be 77 42 25 3f bc 2f e9 3d 77 8b 47 3d
       -0.45682836 0.6455454 0.11386058 0.04871699
0003a0 7f 70 40 3e b0 6a e3 3e 9c 52 a3 3e c1 12 4c bb
       0.18792914 0.44417334 0.31898963 -0.0031139108
0003b0 a7 82 52 3e f8 90 5e 3e 02 27 ca bd d9 52 0d be
       0.20557652 0.21734989 -0.098707214 -0.13801135
0003c0 e6 67 b3 be d2 ac d4 3e ef 93 ec 3c d3 6e db bd
       -0.35040206 0.415381 0.028879134 -0.107144974
0003d0 96 a7 2d bd df 23 a7 3d e3 b9 0e 3e 3b 40 77 bd
       -0.04239615 0.08161139 0.13938098 -0.06036399
0003e0 ae 10 28 be 73 54 ef 3d e1 e7 7a bd f2 87 17 be
       -0.16412613 0.11686029 -0.061256293 -0.14797953
0003f0 6f 85 31 be 65 c0 02 be d4 c1 9c bf d5 13 90 bf
       -0.17336057 -0.12768705 -1.2246652 -1.1256052

mon.linear_module.U.bias f4 [100]
000000 19 24 54 be 04 f9 b1 3e ca 9d 28 3d ec 8b 01 3f
       -0.20716895 0.34760296 0.041166104 0.5060413
000010 80 ad fd 3e 0e c5 36 bc 5a fe a1 3e f7 3e cd 3d
       0.49546432 -0.01115538 0.31639367 0.10021775
000020 fa 0c 69 3e 2b d1 c1 3e ae 02 1c be ad 0f bd 3e
       0.22758856 0.37854895 -0.15235397 0.36926022
000030 02 57 f8 3d 97 6b 10 3f 1a 06 cc 3e 8c 86 6a 3e
       0.121259704 0.5641417 0.39848405 0.22902888
000040 8e a3 6a 3e df 00 07 3f 50 4a 01 3f 5e b6 3b 3e
       0.22913954 0.52735704 0.50504017 0.18331286
000050 26 a7 ce be 77 44 c0 bc e2 06 13 bd 37 00 12 bd
       -0.403619 -0.023470147 -0.035895236 -0.035644736
000060 27 bd f3 3e fa dd bd 3e bd 14 5c 3e df a3 d3 3e
       0.4760525 0.37083417 0.21492286 0.4133596
000070 10 f8 39 bd ea 6d d5 3d 40 9a 66 be 61 9c 75 be
       -0.045402586 0.10421355 -0.22519779 -0.23985435
000080 6f 35 d3 3e 86 bb 7d 3e 1f 0b 7f 3e b8 60 77 3e
       0.41251704 0.24778566 0.24906586 0.24157989
000090 9d 2f 95 bd a0 a7 cd 3e 61 e7 b6 3e 2b 63 15 be
       -0.07284472 0.4016695 0.35723403 -0.14588611
0000a0 c8 f7 93 be 82 0c 38 be 16 3d 19 3f 7c 63 95 be
       -0.2889998 -0.17973521 0.59858835 -0.29177463
0000b0 85 51 1f be b3 7c 69 be 9b c7 89 3e 9e b8 28 3e
       -0.15558441 -0.22801475 0.269101 0.16476676
0000c0 07 01 fc 3e 0a b9 ad 3e 80 56 2a 3e d6 a0 49 be
       0.49219534 0.33930236 0.1663456 -0.1969026
0000d0 2b a4 fe 3e 19 84 34 bd ec e1 3e 3e 6b 82 8c 3e
       0.49734625 -0.04407129 0.1864087 0.2744325
0000e0 b7 48 db 3e a0 62 31 3e 90 70 a2 bc b2 a6 db 3c
       0.42828915 0.17322779 -0.019829065 0.026812885
0000f0 e2 68 1d be f7 b3 74 bd e4 16 0e bd c1 19 d2 bd
       -0.15372041 -0.05974194 -0.0346898 -0.102588184
000100 b9 33 a6 3e a7 92 0d bd 16 8e cc bc 53 fc 4e 3e
       0.32461336 -0.034563687 -0.024970096 0.20213442
000110 f8 15 e8 3e 86 d3 81 3e 92 c8 d3 be f4 2d 07 3f
       0.4532926 0.25356692 -0.4136396 0.52804494
000120 c8 5a ed 3e 5f 79 0d 3e 4b c8 2e 3e 79 49 01 3e
       0.46358323 0.1381583 0.17068593 0.12625684
000130 de f3 5a 3d 70 37 e2 3e 61 c2 70 3e 67 8d dd 3e
       0.053455226 0.4418292 0.2351165 0.43271944
000140 af ee bb be 9f d0 f3 3e 34 a1 4d be b2 c5 f1 3e
       -0.3670554 0.47620103 -0.20081025 0.47221142
000150 12 56 8c 3e 8f ca e0 3e 76 fe bc 3e cf 1e eb 3e
       0.27409416 0.4390454 0.36912888 0.45921943
000160 fb 53 cf 3e 18 03 83 3e 2e 25 aa 3e 4c b0 dd 3d
       0.4049376 0.25588298 0.3323149 0.108246416
000170 ef c0 f2 be bc e7 c0 3e 0f 42 18 3f 51 41 1c 3b
       -0.47412822 0.376768 0.594758 0.0023842643
000180 13 88 a9 be 3f c8 06 3f 3d fa e9 3e 8e 79 06 3e
       -0.3311163 0.526493 0.4569873 0.13132307

mon.linear_module.A.weight f4 [100, 100]
000000 6d d5 08 3d a9 9a e7 bc 9b 48 6f bd 36 86 cc 3b
       0.033406664 -0.02827199 -0.05841885 0.006241585
000010 ae 93 1b bd ed 36 d4 bd 7d 5f 29 bd a8 f8 90 bd
       -0.037982635 -0.10362039 -0.04135083 -0.070786774
000020 43 b9 a2 3c 6f 18 0b be 43 f6 ee bc 98 c7 fa 3c
       0.01986373 -0.1358354 -0.029170161 0.030612752
000030 73 0c 9b 3d b3 86 34 bd d2 9d d6 bb 46 4a cf 3d
       0.07570734 -0.04407377 -0.0065495754 0.101215884
000040 67 eb ec bc 83 e1 2b 3d a8 31 17 bd cb 59 5c bc
       -0.028920842 0.04196311 -0.03691259 -0.013449143
000050 ee 00 16 bd f5 e5 8d bd 4e 0b 88 bd ae 88 7f bc
       -0.03662198 -0.069286264 -0.06642781 -0.015596552
000060 60 c1 7b 3d b7 ec 13 bd ef c7 fb 3c e8 ba 53 bd
       0.061463714 -0.03611442 0.030734984 -0.05169192
000070 3b c2 19 3c f1 70 6e bd 3a e2 1c bd b3 67 29 3e
       0.009384687 -0.058213178 -0.038301684 0.16543464
000080 78 98 ca bd b4 9f 93 bd ef 4f 29 bd 3c 75 b5 3d
       -0.09892362 -0.07208195 -0.041335996 0.08860251
000090 fd 8d 48 3d 98 3f eb 3c c5 0f 90 3d 53 ba f2 3d
       0.048963536 0.028716847 0.07034258 0.11851945
0000a0 03 88 67 3d 1b 63 65 3d b3 38 5a bd 08 4a 88 3d
       0.056526195 0.056002717 -0.05327673 0.06654745
0000b0 e6 8c 75 bd 42 dc 9e 3c e6 f6 ff bd c7 c3 12 3d
       -0.059948824 0.019392136 -0.12498264 0.03583124
0000c0 fc e4 7d bd b2 2e 2c 3d 2f 02 10 3d e4 4c d0 3c
       -0.061985955 0.04203672 0.035158332 0.02542729
0000d0 03 98 1b 3c 55 6f 26 3d 65 b8 ba 3d 12 2e 9f bd
       0.009496692 0.04063352 0.09117202 -0.07772459
0000e0 8e 46 ad bb 38 30 5c 3d 6e 27 3c bd ef 2e 83 3d
       -0.005287952 0.053756922 -0.04593604 0.06405436
0000f0 a3 51 aa bb da 30 ea bc 50 8a 62 3d a6 e9 9a bc
       -0.00519772 -0.028587747 0.055307686 -0.01891024
000100 84 a4 5c 3d b0 f4 c3 bd 7c dc bf 3c 3f 35 84 3d
       0.05386783 -0.09568155 0.023420565 0.064554684
000110 5d 5f 0a 3c 98 06 10 3d 4a 01 11 bd 4e ad 3b 3d
       0.008445588 0.03516254 -0.03540162 0.045819573
000120 dc 0f c1 bd 1f 35 b6 bc c2 9a 8f 3c 38 5a a4 bd
       -0.09426853 -0.022242127 0.017529849 -0.0802502
000130 64 ae 6a bb b4 5c ea 3b 30 16 8d 3c 5a 9a 92 3d
       -0.0035809511 0.0071521644 0.017222494 0.071583465
000140 74 b8 9f bc c8 ca 6c 3d a6 22 37 bd 84 e2 f0 bb
       -0.019497134 0.057810575 -0.044710778 -0.0073512215
000150 33 e9 c5 bd 48 16 c1 3d 41 77 0d 3d 15 98 82 3c
       -0.0966362 0.09428078 0.034537558 0.015941659
000160 4b 2a b2 bc 63 cb bb bd 4a 32 87 3c bb 54 a6 bc
       -0.021748682 -0.09169652 0.016503472 -0.020304075
000170 fb 3c 2a bd 29 e4 39 bd bc c7 e7 3d d8 69 3a bd
       -0.04156206 -0.045383606 0.11317393 -0.045511097
000180 ea b7 fb bc 4e 13 60 bd 13 7c d5 3c 8c f6 67 3d
       -0.030727345 -0.05470591 0.02606014 0.05663161
000190 09 76 27 bd 5f 64 ae bd 43 5d 5b 3d 11 ea 26 bb
       -0.04088405 -0.08515238 0.05355574 -0.0025469104
0001a0 08 44 87 3d 47 53 96 3c 3a 6f 6a bd fe 35 07 bd
       0.06604773 0.018350257 -0.05723498 -0.033010475
0001b0 c2 7b c4 3d c9 27 b3 3c 3d d1 a0 3d cf ff c3 3d
       0.095939174 0.021869557 0.07852409 0.09570276
0001c0 37 02 78 3d 74 d4 b3 3d 34 f4 81 bc 72 70 9b bd
       0.060548987 0.087807566 -0.015863515 -0.075898066
0001d0 39 06 2b 3d 1e 02 49 bc 95 19 76 3c 76 41 eb bd
       0.04175398 -0.012268571 0.015020748 -0.11487095
0001e0 37 4e 1a 3d 2a 55 82 bd 09 74 4d 3d 4f dd ee bd
       0.037672248 -0.063639 0.050159488 -0.11663305
0001f0 10 2b aa bd 58 84 cd 3d 28 a3 a0 3b 9b 6d b0 bd
       -0.08308995 0.10035008 0.0049022622 -0.086146556
000200 0b 14 ac bd 96 51 fd bb 72 08 e2 bd 75 b0 50 3d
       -0.084022604 -0.007730673 -0.11036767 0.050949533
000210 0e 92 da bd fd aa e3 bc 34 57 06 3d 41 83 05 3d
       -0.10672389 -0.027791495 0.032798007 0.032595877
000220 ff bc 99 3c 05 02 35 bd 8c c6 b2 bd 94 70 83 3d
       0.018766878 -0.04419138 -0.08729276 0.06417957
000230 1e 97 41 3c 01 05 c1 3d 57 cc ba 3d 9a d1 98 3d
       0.011815814 0.094247825 0.09121006 0.07461853
000240 19 d0 af 3c e8 69 65 3d 54 e4 ed bd a7 7d c2 bd
       0.021461533 0.056009203 -0.11615816 -0.094966225
000250 6a ce a4 3d 25 31 bb ba 39 60 7a 3d 34 c3 d8 bd
       0.08047183 -0.0014281614 0.06112692 -0.10584107
000260 3c ef 4a 3d 73 3c 8c 3d cd 1d 9f bc 13 f6 1a 3d
       0.049544558 0.06847467 -0.01942339 0.03783233
000270 06 77 3f 3d 46 bf 43 3d bb 47 37 3c 96 e9 90 bd
       0.04674437 0.047789834 0.0111865355 -0.07075803
000280 f0 28 68 ba bd b1 23 bd a0 20 a0 3a 4c db 60 3d
       -0.0008856198 -0.039964426 0.0012216754 0.054896638
000290 33 a3 95 3d 1e 7a 93 bd e2 a0 81 3d 4e 5c c7 bb
       0.073065184 -0.072010264 0.06329514 -0.0060840016
0002a0 66 cc ca bd 89 f0 92 3d 89 48 52 3c db 8b 23 3d
       -0.09902267 0.07174785 0.012834677 0.0399283
0002b0 c8 ee 31 bd f2 d6 11 bd 0e bf cd 3d 09 21 b5 3d
       -0.04344061 -0.03560538 0.100462064 0.088441916
0002c0 57 03 29 bd 2f ee 2e bd 05 2c b1 bd 9e 11 44 bc
       -0.04126295 -0.04270762 -0.08650974 -0.011967091
0002d0 ec 93 af bc b8 46 57 bc 66 dc c1 3d 34 62 d8 3d
       -0.02143284 -0.013139419 0.09465866 0.10565606
0002e0 09 8c a6 3c 00 be 2a 3b fc e4 26 bc d2 c2 c4 bd
       0.020330446 0.002605319 -0.01018643 -0.096074715
0002f0 c4 06 f4 bd 03 30 60 3c 7c e4 1c 3c 63 e2 87 3d
       -0.11915353 0.013683322 0.009575959 0.06634977
000300 77 2d a7 3d 1c 8d 0b 3d 9b fc 45 bd 35 f7 6d 3d
       0.081629686 0.03407012 -0.048336606 0.058097083
000310 7a 59 ea bc db 83 70 bd ef cc cd bc 7b 84 cd 3b
       -0.028607119 -0.058719497 -0.025122134 0.0062718964
000320 32 fa da bd 3a f7 bf bb e2 d0 e7 3d ec b6 af bd
       -0.10692252 -0.005858329 0.11319138 -0.085798115
000330 24 6f ca bd 7e c2 3d bd 07 be 0a bd 1d 92 a0 bd
       -0.0988448 -0.04632806 -0.03387263 -0.07840369
000340 40 a3 8d 3d f1 bd 00 3d 06 60 90 bd 91 9c 19 3d
       0.06915903 0.031431142 -0.07049565 0.03750283
000350 70 72 59 3d 15 38 8b bc 74 2e a3 bd 1e 7f b7 3d
       0.05308765 -0.016994515 -0.079678446 0.089597926
000360 97 8a 76 3c 60 fa b7 3c 2d 20 48 bd 48 08 80 3c
       0.015047691 0.022458255 -0.04885881 0.015628949
000370 f6 98 4a bd ed 71 8f bd 16 d8 be 3c 9d 99 34 bc
       -0.04946228 -0.070041515 0.023296397 -0.011022952
000380 3f 67 02 3c 6f c7 83 3d 38 5d aa 3d 3c 08 47 bd
       0.007959186 0.06434523 0.08318561 -0.048591837
000390 8c 38 13 3d df 7e 89 3d aa 8a 85 bd 99 86 8c bd
       0.0359426 0.06713652 -0.06520589 -0.0686161
0003a0 ad 47 c9 3d f2 ad db bd 3a b0 28 bd c8 56 4c bd
       0.09828124 -0.10726537 -0.041183688 -0.04988745
0003b0 0e 7b a5 3b 8d 12 f8 bb b6 d6 bb bd 62 68 6f bc
       0.0050500697 -0.007570571 -0.09171812 -0.014612289
0003c0 61 13 c2 3c 42 14 47 3d 42 9f 90 3b 64 15 7d bd
       0.023690881 0.048603304 0.0044135163 -0.061787978
0003d0 1f 3e 64 bd 3a 74 d6 3c 12 a5 55 bc 02 f7 51 bd
       -0.055723306 0.026178468 -0.013039844 -0.051260956
0003e0 a9 5a 87 3d 93 b3 04 3e bf 3f e9 3d 3a b4 42 bd
       0.06609089 0.12959127 0.11389112 -0.04753516
0003f0 29 bd be bb 8d 2d 3b bb 32 de be 3a c9 23 86 bb
       -0.0058208895 -0.0028561086 0.0014562069 -0.0040936214

mon.linear_module.B.weight f4 [100, 100]
000000 9a 78 cd 3c 7b cd 8f 3c 0f b6 a9 3d d7 39 fc 3b
       0.025081921 0.017554035 0.08286678 0.0076973247
000010 eb f5 65 3d 3f c1 2e 3d f0 c9 98 3d a1 f3 b0 3b
       0.05614273 0.042664763 0.074603915 0.0054001366
000020 f5 1f b2 3b df 47 ab 3d c9 9c a8 bd 52 a0 a6 bd
       0.0054359385 0.08363318 -0.082330294 -0.081360474
000030 73 4a ba bd fd f8 32 bd 76 d9 0c bd 4b 52 8e 3b
       -0.09096231 -0.043694485 -0.034387074 0.004343306
000040 ba 72 9e 3c 0b 22 8d bd 4a 5e db bd 1c 34 c2 3d
       0.019341815 -0.06891259 -0.107113436 0.09482595
000050 26 65 f8 bb 2b 69 11 bd 50 b3 c9 3c 59 ff c7 3d
       -0.007580417 -0.035500687 0.024621636 0.097655006
000060 92 b4 00 3d a6 03 1f 3d 35 eb 7f bd bd 40 37 3c
       0.031422205 0.03882184 -0.06248017 0.011184868
000070 28 3c ad bd 53 40 fe 3d c2 3b a3 bd 30 11 a2 bd
       -0.084587395 0.124146126 -0.07970382 -0.079134345
000080 f3 e1 e7 bc 54 f8 93 3d 97 56 17 3d 8c 50 96 bd
       -0.028305983 0.07225099 0.036947813 -0.07339582
000090 22 15 6d 3c 1d a9 e2 bc 8a 08 0f 3d a0 ed 75 3d
       0.0144703705 -0.02766853 0.034920253 0.06004107
0000a0 4a c1 81 bd 76 6c 4a bd 18 9e af bd 98 e1 04 bd
       -0.06335695 -0.049419843 -0.08575076 -0.032441705
0000b0 c2 9b f7 3c 46 ec c5 3b 0c b6 64 3d 5d e9 2a 3d
       0.030225638 0.006040129 0.055837676 0.04172646
0000c0 6a 2d 16 bd 36 0b 64 3d 66 e5 b4 3d 30 b4 37 bd
       -0.036664404 0.055674754 0.08832817 -0.044849575
0000d0 7b 04 fb bc d2 d8 a2 3d d3 f7 7f bd 4b 57 3f bd
       -0.030641785 0.079515114 -0.062492203 -0.04671411
0000e0 c1 ab 85 bd f2 8b 4d 3d 4c 04 50 3d 81 1e 07 3d
       -0.065269 0.05018229 0.050785348 0.032988075
0000f0 c1 04 84 bb 0a ce 87 3d fe 54 84 3c 85 62 74 3d
       -0.004028887 0.06631096 0.016153809 0.059664268
000100 8f 8f 76 3d 1a 62 f5 3a b4 92 9e 3d 73 87 19 3e
       0.060195502 0.0018721253 0.07742825 0.14993076
000110 6d 4e c6 bd ad b7 79 bd 2d 64 1e 3d 63 c6 a3 bd
       -0.09682927 -0.060966183 0.038669754 -0.07996824
000120 3b 0f 75 3d 2e db d8 3c b2 f3 bd 3c 33 8c a4 3b
       0.059828978 0.0264717 0.023187492 0.005021596
000130 a1 1d 00 be 64 7b 8f bd 4a 5a 91 bd d4 16 75 bd
       -0.12511303 -0.07005957 -0.070972994 -0.059836224
000140 6d 52 cd 3c a5 3e 13 3d 76 8e 29 3d d3 c3 ab bd
       0.025063718 0.035948414 0.041395627 -0.0838696
000150 77 e0 a2 bd 62 09 e1 3c b0 b1 8a 3c 0f 7d 82 bd
       -0.079529695 0.027470294 0.016930431 -0.06371509
000160 e6 35 ca bd a1 4e e5 3c d7 7c 92 bc ed c5 cc bc
       -0.098735616 0.027991595 -0.017881794 -0.024996722
000170 c6 a5 ff bd fa 91 c3 bb 80 02 99 3b 9c 91 91 bd
       -0.12482791 -0.0059683295 0.0046694875 -0.07107851
000180 0d a1 73 bd 70 2b 50 3d 53 12 aa bd f4 b3 6b bc
       -0.059479762 0.050822675 -0.08304276 -0.014386166
000190 60 dd 66 bc 68 c5 87 bd b6 f8 8b bd 01 3e 2b 3d
       -0.014090866 -0.06629449 -0.06834547 0.04180718
0001a0 c0 a3 e8 bd 69 b8 23 bd d0 61 eb bc aa 3f 12 3c
       -0.11359358 -0.03997079 -0.028733164 0.0089263115
0001b0 0c 76 a0 bd 60 76 73 bd 4b 58 fb bd 37 91 b6 3d
       -0.07835016 -0.059439063 -0.122727 0.08914416
0001c0 2c 5b 61 bd bf 5d 56 3d b3 72 52 3d 02 b0 0d 3d
       -0.05501859 0.052335497 0.051378917 0.034591682
0001d0 b7 96 27 bd ee a4 8e 3c 83 14 0b 3c 82 69 fe bc
       -0.040915217 0.017412629 0.008488777 -0.03105617
0001e0 60 bf 41 bd 24 37 0f 3c 87 bf 98 bd cc df b2 bb
       -0.04730165 0.008741174 -0.07458406 -0.0054588076
0001f0 f7 5c 81 bd c8 2d 88 3d 06 93 03 3d e6 c6 59 3d
       -0.0631656 0.06649357 0.032122634 0.0531682
000200 5d 13 83 bd e4 bb 33 3d 63 c4 00 bd 03 db 7b 3d
       -0.06400178 0.04388036 -0.03143729 0.061488163
000210 c6 08 e0 3b 7c 4c 63 bd ca 62 7a bc fd f6 1c bd
       0.0068369834 -0.055492863 -0.015282342 -0.038321484
000220 ff 53 55 bd 1d ee e2 3c 9f 80 fc bd ef 70 71 bd
       -0.052082058 0.027701432 -0.1232922 -0.058945592
000230 83 a4 d3 bd 42 2d 0f 3d 91 8e a0 bd 0e cc a8 3d
       -0.103341125 0.03495527 -0.078396924 0.08242045
000240 7f 1d 90 3d 59 e2 71 bd 58 11 b8 3d 40 c9 15 3d
       0.07036876 -0.059053753 0.08987683 0.03656888
000250 e1 c2 88 bd 6b da f3 3c fb 02 33 3d b0 51 e2 3b
       -0.06677795 0.029767236 0.043704014 0.0069067106
000260 7e 24 8d 3d 9c 22 a8 bc f1 d6 0f be 13 23 aa bd
       0.06891726 -0.020524316 -0.14046837 -0.08307471
000270 d8 61 a9 bd 96 d7 e1 3c 7a a0 aa bd 50 d9 1b 3d
       -0.08270615 0.02756862 -0.0833139 0.038049042
000280 96 cf 88 bd 9a 33 86 3d 0f 50 ab bd cd 9c fa bd
       -0.06680219 0.06552811 -0.08364879 -0.122369386
000290 bb 61 e6 bc ac bb 71 bd a0 17 5d bd 49 e6 b4 3d
       -0.028122773 -0.05901687 -0.05397761 0.08832986
0002a0 d3 22 b8 bd 02 52 76 3d 9b a1 eb bc 07 e9 1e 3d
       -0.08991017 0.060136802 -0.028763583 0.03879645
0002b0 02 0a c4 3c f1 99 f7 bd bd 10 b8 bd ab 42 a6 bd
       0.023930553 -0.12089909 -0.089875676 -0.08118185
0002c0 a1 f5 6d bd e3 4f f8 3d 51 32 86 3d 66 d8 d9 bd
       -0.058095578 0.12124612 0.06552566 -0.10636978
0002d0 d5 63 90 bd 80 1e fa 3c 55 d0 d9 bc 93 20 cc 3c
       -0.070502914 0.030532122 -0.026588598 0.024917876
0002e0 7f 8e 85 bd 2f 0c 95 bd 2c a1 2f 3d 90 79 08 3d
       -0.065213196 -0.072777145 0.042878315 0.033319056
0002f0 95 2c d8 3d 65 50 65 bc 7a c5 b7 3c e0 67 7d 3d
       0.10555378 -0.013996218 0.022433031 0.06186664
000300 87 ae 61 3c cd e9 63 3c 95 ee 64 3c cb cb 97 3c
       0.013774521 0.013910723 0.013972898 0.018529793
000310 79 8c 12 3d 03 bb c5 bd 0c 62 c5 bd f8 48 97 3b
       0.035778496 -0.0965481 -0.096378416 0.004616853
000320 0f a8 b1 3c 7c d0 ca 3c d0 51 c3 bd cb a5 82 bd
       0.021686582 0.024757616 -0.09537089 -0.06379279
000330 51 76 1b bd 4e 0f d6 bd 0e 33 b0 bd 53 47 c9 3d
       -0.037954632 -0.10452138 -0.08603488 0.09828057
000340 c7 e0 84 bb c2 8e 81 3c a8 b5 a2 bc f9 45 6d 3c
       -0.004055116 0.015815143 -0.019862011 0.014482015
000350 c9 f0 52 39 8a d6 dc 3b e0 d7 3e 3d d2 af 13 3d
       0.0002011686 0.0067394422 0.046592593 0.036056347
000360 b4 f2 18 bd 68 05 b0 3d ad 75 a3 3d 7f 2a 6b 3c
       -0.037340835 0.08594781 0.07981429 0.014353394
000370 33 3b 88 bd b8 86 f6 3c 44 33 01 3d 86 ea 3c bd
       -0.06651916 0.030093536 0.03154303 -0.046122096
000380 5a 6a 15 bd 31 74 3d bd 8f 93 f8 bd bb 07 63 bc
       -0.036478378 -0.046253387 -0.121375196 -0.013856824
000390 15 35 be bd 4b b2 00 3d 8a 14 e5 bc 4f d4 a5 3c
       -0.09287468 0.031420033 -0.027963895 0.020242838
0003a0 a1 e0 91 bd b4 97 3a bd 8b 6b 01 bd d8 6d a9 bd
       -0.07122923 -0.04555483 -0.0315967 -0.08272904
0003b0 0f b1 5b 3b 14 67 58 3d e4 4b f2 3d e0 a6 ac 3d
       0.0033522283 0.052832678 0.11830881 0.084302664
0003c0 c6 0d 84 bd aa 61 8b 3d 4a f6 94 bd ae c6 c2 3c
       -0.064479396 0.06805737 -0.072735384 0.023776378
0003d0 c7 37 96 bb 69 63 8d 3d f3 60 cb bd b9 63 aa 3d
       -0.004584286 0.069037266 -0.09930601 0.08319802
0003e0 64 e6 ed bd 5b 3e 19 3e c1 89 95 3d 87 96 8e ba
       -0.11616209 0.14965193 0.07301665 -0.0010878601
0003f0 24 6f 9a 3c bf 52 9a bc 7d 9a d9 3c 90 ef 96 bd
       0.018851824 -0.018838285 0.026562924 -0.07369912

Wout.weight f4 [4, 100]
000000 58 7d 37 3d e8 de 2b be 19 b2 09 3e 26 33 87 3d
       0.04479727 -0.1678425 0.13446845 0.06601553
000010 ed 22 e6 bc 50 cb 58 3d 3d f7 d8 3d 9c d2 f3 3d
       -0.028092826 0.05292827 0.10594032 0.11905405
000020 90 87 18 3e 2f a3 08 be 2d 2c 26 3e 7e 9d a9 bd
       0.14895463 -0.133435 0.16227789 -0.082819924
000030 55 31 41 bd 60 a6 53 bc 7b b9 03 be a1 24 13 3c
       -0.047166187 -0.012918085 -0.12863724 0.008980901
000040 91 c6 09 3e a4 ec 79 3d 9c 7f d4 3c c7 7c 3b 3d
       0.13454653 0.061016694 0.025939755 0.045773294
000050 01 44 0d be ba 64 98 3d a2 d5 26 3e bb e2 b8 3d
       -0.13795473 0.07441087 0.16292432 0.090276204
000060 a8 f6 91 bd d1 55 6b bd 6f 1d 6e bd c3 5b c4 3d
       -0.07127124 -0.057454888 -0.05813354 0.09587815
000070 63 03 df bd c2 6d b8 bd 38 3e d4 3b 17 89 5e be
       -0.10889318 -0.0900531 0.0064771436 -0.21731983
000080 69 f6 08 3e ea 03 b6 bd 0d 00 11 3d f2 6a 2a 3e
       0.13375248 -0.08887465 0.03540044 0.16642359
000090 f4 85 8a 3e 1d 9f d8 bd 87 00 fa 3e bb 37 29 be
       0.27055323 -0.105772234 0.48828527 -0.16525166
0000a0 9e 74 1a 3e 17 96 0a be 58 bd 1d be 5f 76 03 3e
       0.15083548 -0.13533817 -0.1540426 0.12838124
0000b0 ab 99 bf 3d 93 68 e0 3d 05 e3 86 bd 62 4f 0f be
       0.09355482 0.10957446 -0.06586269 -0.13995126
0000c0 d2 36 4a 3c 79 0e 6d 3d 11 45 cd 3d 01 37 42 3d
       0.012342172 0.05787513 0.10022939 0.047415737
0000d0 b9 05 17 3e 76 3e 80 3d 75 08 7c 3e 12 7a 3d 3d
       0.14748277 0.062619135 0.24612601 0.046258993
0000e0 94 29 ee bc e9 0a 63 3e 5c d3 9c 3c ca c8 04 be
       -0.02907256 0.2217213 0.019143753 -0.1296722
0000f0 b6 84 2c be 13 52 8c 3b 2b b0 7a 3d 76 18 0e be
       -0.168475 0.004282245 0.061203163 -0.13876519
000100 6e 1a 72 bd 2e eb 05 bd 7a b3 49 3e 52 c2 bb be
       -0.059107237 -0.032694988 0.19697371 -0.36671692
000110 37 19 0c 3e b8 0c a0 bd 5b b8 7c bb 05 33 9e 3d
       0.13681494 -0.07814926 -0.0038562033 0.07724575
000120 1e cb e4 bd 46 52 52 be 04 a4 61 bd cc ad dc bc
       -0.11171554 -0.20539197 -0.055088058 -0.026938342
000130 2f 3f 33 be 3e 01 6c be d2 b2 e0 3d 56 7f 14 3e
       -0.17504571 -0.23047349 0.10971607 0.145017
000140 30 6b f2 bc d7 44 98 3d b0 0b 0d be a3 4d 2b be
       -0.029592127 0.07435005 -0.1377399 -0.16728835
000150 a0 98 20 3d c4 30 29 3d ca a5 5c 3d 3f eb b9 3c
       0.039208055 0.041306272 0.053869046 0.022695182
000160 c6 84 1d be 4f 96 14 3e 42 37 61 be 41 a5 d4 bd
       -0.1538268 0.14510463 -0.21993735 -0.10383082
000170 38 30 9a 3d ca 35 38 3e 5f 8a 1c be 5b 32 01 bd
       0.07528728 0.17989269 -0.1528716 -0.031542163
000180 77 90 29 bd 9f c3 3d be 2d 23 e3 3d 78 79 fb bd
       -0.041397538 -0.18531655 0.110906936 -0.12279028
000190 e3 88 0b 3e 81 c9 ff bc ed fa 56 3e 24 8f 82 bd
       0.13626437 -0.031224014 0.20994158 -0.06374958
0001a0 77 ee 5c 3e 65 b2 ed bd 5f d6 2e 3d 74 8e 90 3d
       0.21575342 -0.11606292 0.04268491 0.07058421
0001b0 1c a6 da bd fa 49 bd bd d5 e0 29 be a4 f3 15 bd
       -0.10676214 -0.092426255 -0.16589673 -0.036609307
0001c0 24 80 62 bc 4e cf d2 bc cb 12 fd bd 7a ca 47 3e
       -0.013824496 -0.025733616 -0.123571 0.19510832
0001d0 f1 90 cd bd bb 6e ce bd ac 88 3c 3e e3 f8 8a bd
       -0.10037411 -0.10079714 0.18411511 -0.067857526
0001e0 fd b7 ef bd c4 67 91 3d 9d c0 69 bd 53 37 1b bd
       -0.11705015 0.0709987 -0.057068456 -0.03789456
0001f0 f7 86 d8 bd 10 79 a2 3d c1 92 19 3e 38 3c cc bd
       -0.105726175 0.07933247 0.14997388 -0.09972423
000200 03 e1 05 3e a8 56 a2 3d 15 ee 1f bd e7 f2 3e 3c
       0.13074116 0.079266846 -0.039045412 0.011654592
000210 98 ee 8a bd 96 97 9e 3d 01 a6 59 be 65 f4 af bd
       -0.067837894 0.077437565 -0.21254732 -0.085915364
000220 64 df 44 be d4 23 88 bd f3 17 5b 3d a2 56 37 be
       -0.19225842 -0.06647459 0.053489637 -0.17904142
000230 15 93 b6 3d c0 d4 2e 3e b1 ae b7 3d b8 a3 99 bd
       0.089147724 0.17073345 0.089688666 -0.0750193
000240 8d 41 96 3d fd 78 a6 3d a0 8c d9 3d ae cb 1c 3e
       0.073367216 0.081285454 0.10622525 0.15312073
000250 8a 48 37 be b1 cf 9c 3e 74 85 37 be 2b b6 a6 3c
       -0.17898765 0.30627206 -0.17922002 0.020350536
000260 76 4a 17 bd 29 88 20 3e 45 05 61 be 27 52 03 3e
       -0.036936246 0.15676941 -0.21974666 0.12824307
000270 a5 14 ae 3c 75 27 80 be b2 71 ae bc e7 eb 49 3d
       0.021250078 -0.25030103 -0.021294449 0.04929724
000280 cd 02 2d 3e c4 ee e2 bd 2a 17 50 3d 01 c2 2c 3d
       0.168956 -0.11080697 0.05080334 0.042177204
000290 7f 3d 08 3e 88 ca 0e be ea bf 91 3e 77 c3 8c be
       0.13304709 -0.13944447 0.2846673 -0.27492878
0002a0 85 55 cd 3d b4 4b da 3d cc ee 57 bd b1 1c 19 be
       0.10026077 0.106589705 -0.05271797 -0.14952351
0002b0 9e 04 3d 3d 77 89 be bc 21 95 67 3e 6e 5f 17 be
       0.04614698 -0.023258908 0.22615482 -0.14782497
0002c0 90 8d 53 be f3 c5 79 3d 7a dc d0 bd 5f f1 53 3e
       -0.2065947 0.060979795 -0.101983026 0.20697545
0002d0 21 41 35 3d c8 0f 61 3c 16 07 e7 bd eb 27 fe bd
       0.044251565 0.013736673 -0.112806484 -0.124099575
0002e0 ac bc 9f bb 92 4d 08 3e 86 ed 39 b8 88 5c bc bd
       -0.0048747864 0.1331084 -4.4328648e-05 -0.091973364
0002f0 de b5 c0 bb c9 d3 11 3e 34 5a 27 3c 0a 90 2c be
       -0.0058810553 0.14240946 0.010214377 -0.16851822
000300 84 67 3c 3e be 2f ad 3d 4d e5 0a 3e 3b fe 2b 3e
       0.18398863 0.08456372 0.13564034 0.167962
000310 3e fc a8 bd 42 5a 34 3d 7f 1b e6 be 60 ba 0d be
       -0.082512364 0.04403139 -0.44942853 -0.13840628
000320 64 05 97 bd c4 81 11 3d ef 7f 0d 3e 2c e6 43 bd
       -0.07374075 0.035524145 0.13818334 -0.04782693
000330 7b af 1b 3e f7 aa 80 3d e7 6b bb bd e8 6e dd ba
       0.15203659 0.06282609 -0.0915144 -0.0016894015
000340 78 30 97 3e 7b 17 2d 3e a0 40 1c 3e cb 08 0a 3e
       0.29529166 0.16903488 0.15259027 0.13479917
000350 a7 d2 c2 3e 95 37 af 3b 3e 03 b3 bc 6c 9b 70 bb
       0.3805134 0.005347202 -0.021852132 -0.0036713732
000360 22 1e c7 bd 95 ea 12 bd fa 3c 92 3e 0b 9e e9 bc
       -0.09722544 -0.035868246 0.28562146 -0.028517744
000370 aa ef c0 bd 4c 93 05 bd e2 b4 05 3e 9a 8a 0a be
       -0.09420712 -0.032611176 0.13057283 -0.13529435
000380 4c 0f 23 bc e4 df 66 3a 0e 1c d8 bd f8 93 ce 3d
       -0.0099523775 0.0008807166 -0.10552226 0.100868165
000390 4e 65 3f 3d 98 b6 80 3d bd a4 1d bd 14 cd 28 be
       0.04672747 0.06284827 -0.038487185 -0.16484481
0003a0 d5 8b 6c 3c e6 cb b1 3d 1b 35 9f 3e 96 34 58 bd
       0.014437635 0.08681469 0.31095204 -0.052784525
0003b0 40 d0 24 3d 85 ac 9f 3e 04 09 f2 3c 89 9d f9 b9
       0.040237665 0.3118631 0.029545315 -0.00047610354
0003c0 f6 4b 15 be fa d1 b2 bb 40 2d af 3e 82 6e 6a bc
       -0.14579758 -0.00545716 0.3421421 -0.014308574
0003d0 ad a3 20 3c c8 14 b9 bd 32 cb dd 3d 6d e1 be bd
       0.009804648 -0.09037167 0.10829772 -0.0932034
0003e0 d6 99 a0 3b aa f0 28 3e 5c a0 35 bd 4f da f9 bc
       0.004901151 0.16498056 -0.044342384 -0.030499605
0003f0 5e e1 3c 3e d0 87 39 3c d1 e9 65 3e 82 c1 6a bd
       0.18445346 0.011323884 0.22452475 -0.05731345

Wout.bias f4 [4]
000000 51 a5 ec bc 9b 45 54 bd 67 7b 02 3e 49 52 ce bc
       -0.028887423 -0.051824193 0.12742387 -0.025185721
