acados_mpc/acados_mpc/LSTM_model50k.pt (torch, 621424 bytes, 22 tensors)

lstm.weight_ih_l0 f4 [256, 13]
00000000: e31d f83d 34d3 c9be 7c7a 99be d19b f53d
00000010: 3339 1ebe ab1e 85be 5593 913f 89c0 2cbf
00000020: 832b 16bf 4db9 043e 6412 e93e b08a 04bf
00000030: c8ed 60be 9e00 173e e883 c7bb 7079 2a3e
00000040: daeb a23d 2002 85bd ab4a 993d 86fe b5bd
00000050: 21cd 6c3f aa97 1c3f b892 963d dff5 4bbd
00000060: 09dd db3c 16eb cb3c 76b2 fc3e f51d 8b3d
00000070: 4f83 8dbe b029 6f3e ccfd 27bd 95a2 c33c
00000080: 0c5a f33e 655d cb3e 15df 0b3d 9cc4 293d
00000090: d83a be3d 016b 9cbd 1e18 453d 70e9 103e
000000a0: 9206 95bd d43a 1bbe 0f4b 903d 55d9 d83c
000000b0: ce24 0dbd fdac 1c3f 806a a13f c2e7 f6bd
000000c0: 0b4d be3d 25b0 b0bb ce83 563e 3118 aebd
000000d0: e1e5 91bd da08 79bc 5116 e3bd 6bf5 0fbb
000000e0: a563 3ebc a387 9ebb 3e57 9fbe 7d69 a03f
000000f0: 2991 c1be 691e 643c af04 93bd 4ed2 9c3e
00000100: 6dd6 a4bc 69ed 1ebe 9cdd cabd fd24 6c3d
00000110: 4bc3 86bc 258f a7bd 96e6 d03d ad6f cf3f
00000120: c8cf 99be 890b 49bf b5c6 283a 4611 893e
00000130: 0185 b4bd c5bf 81bd 811e 13bd 1134 6dbd
00000140: 4f8f 1cbd 9d9b 40bc 6fda 473b 2aa0 bc3d
00000150: 64fd b5bd 4fff 383d aaa7 0abf 5ff3 2d3d
00000160: 26e9 343c 6f4a 7cbd 2b30 cdbc 2b2c 653b
00000170: 39fc adbc 621a 67be 9a92 a1bc e1a6 5c3b
00000180: b153 27bd b60c 053e 195f 3a3f e8ae 273e
00000190: b613 653d 2685 9fbd 6a43 593d 67f9 24be
000001a0: 1d3e 233e 1cb4 3d3e 836b b4be 410b 893e
000001b0: 971f a03d e5e1 103e 9e66 92be abfb 093e
000001c0: a3e8 8b3d 7b4b 903e ac15 a83d d927 b3bd
000001d0: 1349 143e 16af da3b 756a 1bbe 998d 5cbe
000001e0: b086 083d 4671 bebd 16f6 6fbe cff8 6a3f
000001f0: 1e54 373f 5df9 783f d5bf 153e 9a37 d23d
00000200: 10a8 ee3e b77d 8b3e c847 c0bd 4aa9 023e
00000210: 616b 3fbf 2631 dc3d 1d61 e53d aa1d 41be
00000220: 6086 54be 29f9 c93e 1acd 4e3c 1d13 f83e
00000230: 4af4 b0bd 8244 f9bd c1ef 383e 73a4 0f3c
00000240: de97 4ebe 7f40 333d 056e 9c3d dfbe 80be
00000250: 1072 3e3d 2c9f 053f bd50 ba3e d054 28bf
00000260: b2a1 043d 4636 ad3d a65c 8d3d 0653 04be
00000270: 7031 25bc a713 913d 0675 82be 8d95 a63c
00000280: 254f 53bc be2a 0a3c 1c28 25bf 885a 113e
00000290: fd4d 6fbd efd8 063e c7cc 8c3d 58af 343d
000002a0: fb42 83be fd63 0ebe ab99 3a3e a080 b23d
000002b0: 528e e2bd 3783 d53d 21e0 833d b851 f5bd
000002c0: 8b3e d9bf 3719 47bf 8020 433d e6e9 083e
000002d0: 5c2d 1dbf ff18 9abe db0a d3bc fc6d 193e
000002e0: aa5c fcbc 0dac f7bc b798 fb3d cf15 bc3d
000002f0: 4849 1f3f b4f6 3c3f db4c 013d eb30 62bd
00000300: b6bf 0b3e 592b 573e 8e19 b1bd 6fb6 95bd
00000310: 4fee 3bbe bc1f f0be cba5 6fbe 7201 0abe
00000320: 28be 9dbd eaf5 a9be de34 a5be 1965 ee3d
00000330: 84a8 4d3e 27c7 fcbd 8c89 70be 75ea 5c3c
00000340: f4bb 1f3c e3fd af3d 709a 81be 69db 093d
00000350: 276c da3d 0cdf 57be dbda b23f 4f34 bc3f
00000360: 563d c4be 9426 78bb cd84 cf3e af3b a53e
00000370: 1da5 fdbd 2fe3 f53d 1d3e 9f3d 86f5 61be
00000380: 5827 df3d 47c6 8b3d 4424 5abe 6d20 b33f
00000390: 315c 3fbe 9255 49bf 83b9 7abd dcec ef3e
000003a0: 4c04 88bd 6dd0 41be 95d8 853e 4e0f c43d
000003b0: 93f1 3dbe ae2d 493e e107 bc3c df6f ec3d
000003c0: 49fb 8b3b b44b 5a3f af14 96be 5f04 a53e
000003d0: ac1a a33d 752e 693e f803 2fbe d19f 86bd
000003e0: 1b6a fe3d 8476 80be c206 b6bd 1bb7 ac3d
000003f0: 4af1 b9bd 9ff1 bb3e 377a 47bf a4e1 ce3e
0.121150754 -0.39418948 -0.2997626 0.1199261 -0.15451507 -0.2599996 1.1373087 -0.67481285
-0.58660144 0.12961312 0.45521843 -0.5177412 -0.21965706 0.14746329 -0.0060887225 0.16647887
0.07955141 -0.06494546 0.07484945 -0.08886437 0.925005 0.6116892 0.07352203 -0.049795028
0.026838796 0.024892371 0.49354905 0.06792823 -0.27639243 0.23355746 -0.041013524 0.023881236
0.47529638 0.39719692 0.034148294 0.041447267 0.09288567 -0.07637597 0.048118703 0.1415155
-0.07276644 -0.1515916 0.07045566 0.02647082 -0.034458928 0.6120146 1.2610626 -0.12055923
0.092920385 -0.005392092 0.20948717 -0.08500708 -0.07123924 -0.015199864 -0.11088241 -0.002196635
-0.011620437 -0.0048379465 -0.31121248 1.2532192 -0.3780606 0.013923266 -0.07178628 0.306292
-0.020121777 -0.15520252 -0.0990555 0.057652462 -0.016450545 -0.081815995 0.10200231 1.6205956
-0.30041337 -0.78533226 0.0006438301 0.2677099 -0.08814431 -0.06335405 -0.035917763 -0.057910983
-0.038222607 -0.011755851 0.0030495187 0.09210236 -0.08886221 0.045165356 -0.54162085 0.042468425
0.011041915 -0.061594423 -0.025047382 0.0034968953 -0.021238433 -0.22568658 -0.019723225 0.0033668804
-0.0408513 0.1299313 0.7280136 0.16375315 0.055927 -0.07789068 0.053042807 -0.16110764
0.15941663 0.18525738 -0.35238275 0.267664 0.07818525 0.14148672 -0.28593916 0.1347491
0.06831481 0.28182587 0.082072586 -0.08747835 0.14481 0.006673704 -0.15177329 -0.2153839
0.033331573 -0.09298949 -0.23433718 0.917859 0.7161273 0.972555 0.1462396 0.102645114
0.46612597 0.2724435 -0.09388691 0.12759891 -0.7477322 0.10751562 0.112001635 -0.18858972
-0.20754385 0.39447907 0.012622142 0.48452082 -0.086403444 -0.1217127 0.18060209 0.008767235
-0.2017512 0.04376268 0.07638172 -0.25145623 0.046495497 0.52196 0.36389723 -0.65754414
0.032380767 0.084576175 0.06902437 -0.12922296 -0.010082588 0.070838265 -0.25479907 0.020334983
-0.0128972875 0.008433042 -0.6451433 0.14194691 -0.058423985 0.13168691 0.06874996 0.044112533
-0.2563704 -0.1390533 0.18222682 0.087159395 -0.11062302 0.10425418 0.064392336 -0.11978477
-1.6972212 -0.7777285 0.047638416 0.13370475 -0.6139734 -0.30097196 -0.025762012 0.14983362
-0.030805904 -0.030233407 0.122849874 0.09183847 0.62221193 0.7381394 0.031567436 -0.055222433
0.1364735 0.2101263 -0.08647452 -0.07310187 -0.18352626 -0.4689921 -0.23403089 -0.13477114
-0.07702285 -0.3319543 -0.32266897 0.116403766 0.20083815 -0.12342673 -0.2348997 0.013483633
0.009749401 0.08593347 -0.2531314 0.03365651 0.1066516 -0.2108118 1.3973039 1.4703463
-0.38328046 -0.0037864791 0.40531006 0.32272097 -0.123850085 0.120062225 0.07775519 -0.22066316
0.10896176 0.06824928 -0.21302897 1.399427 -0.18687512 -0.78646195 -0.061212074 0.46860397
-0.066414446 -0.18927164 0.261418 0.09573232 -0.18549185 0.19646332 0.022952976 0.11544775
0.004271899 0.85271764 -0.29312655 0.32229897 0.07964072 0.22771628 -0.17091358 -0.06573451
0.12422582 -0.2509042 -0.08888008 0.08433362 -0.09079225 0.3670778 -0.7792086 0.40406525

lstm.weight_hh_l0 f4 [256, 64]
00000000: da51 763d 5199 9e3d 1121 ff3d bc2f d5bd
00000010: c737 0cbe 4a4d 593d 048c 28be 9282 35bd
00000020: 3f8a 893d 4895 cabd 6b91 3c3e a7c2 0e3d
00000030: 9e1c 123e d89c 423b 89f4 7ebd d564 9f3d
00000040: 536e cdbb 243b 063e 5217 c73d 3802 2c3e
00000050: fe99 c4bd 08b1 5abc 7463 f0bd 4200 dfbc
00000060: 2761 32be f3da e2bb fcd1 eabd 58da 38be
00000070: bc2a 3ebd bf30 2d3c d119 c1bb 13b2 a2bd
00000080: 3939 ee3d 783d 573c dd87 ad3d 1b9d 25bd
00000090: b7c0 cabd 9a39 0fbd 7614 ce3c 1547 1a3e
000000a0: 2a97 69bd f8c0 903c 0fdc 0fbc e314 35be
000000b0: 0d02 c83d 823d ad3d 94f8 0b3d b513 2fbe
000000c0: 0eba 2dbd 6a61 323e 339a 1cbe a6f4 ef3d
000000d0: 38ff 33be a70a 57be cfda e23d 8da9 61bd
000000e0: dfc7 973d 41b0 c3bb 1eda 06be c0da 323e
000000f0: 1bf9 5ebc 1d2a 433d d5ff 493d ceb7 9fbd
00000100: 26fd 36bd a18a 453e 34cc 1bbd df0a fc3b
00000110: 7ef1 f03a 765b 833d 7b20 43bd 5c74 4abe
00000120: 7c76 803d be2d 903d 78bd 0b3c 0389 7ebd
00000130: 6d0d fe3d 1e30 fd3d 9e4a 9b3d 070d 0d3d
00000140: 1868 bfbc de0c 323e 8732 213e b827 273d
00000150: 623e 893d ddc0 11bd aec9 d9bc 88e6 9b3c
00000160: 2d3d 4b3c 515e 22bd 1808 8abd 332b cdbc
00000170: cee6 873d e84f f83b 174e a9bd 0b02 da3d
00000180: d5cc 003e e4da 0d3e 2673 d33d 4b23 03be
00000190: 7d2b ffbd 273d 783c f728 a0bd 25cf d73c
000001a0: 3d4f 743d 061f 3a3e d1f5 5e3a 7e10 84bd
000001b0: ead1 503d 441f d0bc 0023 d0bd 86ae f43c
000001c0: 8abc 973c e433 8dbd 35f8 b2bd 403e 66bd
000001d0: 41a0 1abe 3374 713d 9d43 88bd af12 603d
000001e0: 73dd 533d 595e 79bc d345 b9bd 5351 493e
000001f0: 9673 1bbe 31db f8bd 25ef aa3c 358b 8ebd
00000200: df4a a0bd 3570 6c3c 31d3 083e 9965 12be
00000210: 3604 ecbc 64a0 783d 09f9 aebd d614 0fbe
00000220: 0e75 873e 9de2 16bc 390c 863d 9426 80bd
00000230: d481 383e 6491 bc3e e9ad a0be a479 923e
00000240: aae9 043e 57b0 9f3d 9d42 1d3e a7c4 983e
00000250: 5d8b 18be f2f1 d4bd b1d8 9ebd 97e5 19be
00000260: 6177 39be 71bc 17be 81e4 37bc d219 7fbe
00000270: a7f6 bb3b 3377 813e acf0 1d3e 48e3 f8bd
00000280: b837 8f3e a3c5 063e 0485 913e d6b1 debd
00000290: 03a1 283e e4d6 e83d 4914 c8bd ba98 863d
000002a0: 1f1a 6cbe 5e3f c63d 8e71 173e 8d43 adbd
000002b0: 410c ac3d 2e11 173e 4b21 82be 60e4 fe3c
000002c0: 5dd4 76be a6f4 973e c11e f6bd 955e f93d
000002d0: afff 9fbd f6f7 6abe 12d6 053e 46c3 ed3d
000002e0: 84fd 423e ccc5 203d 6b90 a6bd 6cb6 ea3a
000002f0: d65a 833e ed0b 963d 2f4d 47be f214 87bd
00000300: 5a2f ddbd 360d 403c df5a 023e f764 953b
00000310: a861 cbbd 00cd 36bd d737 c8bd f2b5 02be
00000320: 3c77 32bd 8cfb adbd e76e f03c 1421 673d
00000330: c129 bdbd fe2d 723d 62ef ce3a 9beb d83d
00000340: e77d 203d 196d 853e ec5a 443e 8179 52bc
00000350: 8c09 37bc bb4a 26be c582 1dbd 54a5 c7bd
00000360: b9ae ebbd 2b37 7ebc 402b 9bbd 9a92 34be
00000370: 2337 b4bd 53c1 5fbd cff4 00bd faa5 bb3d
00000380: 46d0 3ebc af7a 473d 0d50 0d3c 859a 383d
00000390: 30cc ff3c 77c6 34be 4efd 28bd 41cc 0a3d
000003a0: 3a55 67bd 3034 7b3d bbdc 6d3d 4f81 40bd
000003b0: 1739 41bc 9ada 1c3e fc20 17bc a19e 3bbe
000003c0: c019 773c 2cd0 e23d c218 e5bd 5a02 85bc
000003d0: 59ea d439 773c f73a aacc abbd b098 4fbc
000003e0: 2047 243d b570 38bd c679 adba 1dcb f5bc
000003f0: c424 fc3d edc9 ce3d 43ed 28be 7d63 14be
0.060136653 0.077440865 0.12457479 -0.10409495 -0.13693152 0.053052224 -0.16459662 -0.044313975
0.067158215 -0.098917544 0.18414848 0.034853604 0.14268729 0.0029695537 -0.062244926 0.07782904
-0.006269255 0.13108498 0.09721245 0.16797721 -0.09599684 -0.013347872 -0.11737719 -0.027221803
-0.17419873 -0.0069230734 -0.114658326 -0.18052042 -0.046427473 0.010570704 -0.00589297 -0.07944121
0.11632008 0.013137214 0.084731795 -0.04043303 -0.09900039 -0.034967043 0.02515624 0.15066178
-0.057028927 0.01767014 -0.008780493 -0.17683749 0.09766016 0.08458997 0.03417261 -0.17097361
-0.042413764 0.17419973 -0.15293197 0.11716585 -0.17577827 -0.21000157 0.11076891 -0.055093337
0.07411169 -0.005971939 -0.13169143 0.17466259 -0.013609196 0.047647584 0.049316246 -0.0779873
-0.044675015 0.19291164 -0.03803654 0.0076917256 0.0018382517 0.06413929 -0.047638398 -0.1977095
0.06272599 0.07039975 0.00852906 -0.062142383 0.124049045 0.12362693 0.075825915 0.034436252
-0.023365065 0.17387721 0.15741931 0.040809363 0.06701352 -0.03558432 -0.026585426 0.019030824
0.012404722 -0.03964073 -0.06739825 -0.025045013 0.066358194 0.007577885 -0.082668476 0.10644921
0.12578137 0.13853031 0.10324697 -0.12806432 -0.124594666 0.015151299 -0.078203134 0.026343891
0.05964588 0.18175897 0.00085052574 -0.06448458 0.05098144 -0.025405534 -0.10162926 0.029868376
0.01852252 -0.06894663 -0.08738748 -0.05621171 -0.15100195 0.058948707 -0.06653521 0.054705318
0.051724862 -0.015220248 -0.09046521 0.19659929 -0.15180811 -0.121511824 0.020865986 -0.069601454
-0.078267805 0.014431049 0.13361813 -0.14296569 -0.028810602 0.060699835 -0.085435934 -0.13972792
0.26456493 -0.009209302 0.065453 -0.06257358 0.18018275 0.36829674 -0.31382683 0.2860843
0.12979761 0.07797306 0.15357442 0.29837534 -0.14896913 -0.1039771 -0.07756174 -0.15028988
-0.18111946 -0.14817978 -0.011223913 -0.24912193 0.0057361904 0.25286254 0.1542384 -0.121527255
0.27972198 0.1316133 0.28421795 -0.10873763 0.16467671 0.11369112 -0.09769494 0.06572099
-0.2305684 0.09680055 0.14789411 -0.0846015 0.08400775 0.14752647 -0.25416026 0.031114757
-0.24104448 0.2967884 -0.120175846 0.12176243 -0.0781244 -0.22946152 0.13069943 0.11609511
0.19042021 0.039251134 -0.08133014 0.0017907149 0.2565524 0.073264934 -0.19463037 -0.06595792
-0.10800047 0.0117219 0.12729977 0.004559155 -0.09930736 -0.044629097 -0.097762756 -0.12764719
-0.043570742 -0.084952444 0.029349757 0.05642803 -0.092364796 0.059125893 0.0015787894 0.10591813
0.03918257 0.26059797 0.19175309 -0.012846352 -0.01117171 -0.16239445 -0.03845479 -0.09748331
-0.11507935 -0.015516083 -0.07576609 -0.17634049 -0.08799579 -0.054627728 -0.031483468 0.09162517
-0.011646336 0.048700985 0.008625043 0.045069236 0.031225294 -0.17653833 -0.041257195 0.033886198
-0.056477763 0.061329067 0.058071833 -0.04699832 -0.011793396 0.15317765 -0.009224173 -0.18322231
0.015081823 0.11074862 -0.11186363 -0.016236473 0.00040610394 0.0018862624 -0.08388646 -0.012670681
0.040106893 -0.04502936 -0.0013235144 -0.030004079 0.123117 0.10097108 -0.16496758 -0.14491077

lstm.bias_ih_l0 f4 [256]
00000000: 3535 d83e c0ca 423c 0632 233f dbd1 40bc
00000010: 1cb5 963d 8323 563c 2311 84bd d706 303e
00000020: c1a4 3b3f 0b2b 243d bc54 343f a113 3fbd
00000030: aa46 313f 0472 32be e95c d73d fbb5 2d3f
00000040: a2a1 8bbd 1f60 113d 65bb 363f 7e1d ed3d
00000050: 018f b83e fcfd b0ba d716 503e 5467 4c3f
00000060: 55d0 7c3d 8f41 8bbd c657 c63d cdb8 fa3c
00000070: c126 9c3c 45ad 3c3e 080f 133f 1d62 183e
00000080: 1196 c13d 4708 02bd e692 e73e 4b49 8e3f
00000090: 964f c93d 3672 09bc 7929 b63c cbda 2a3c
000000a0: 7652 6dbd 7847 6dbc bb3d 2f3e bd41 243f
000000b0: 23c0 f93b 4e52 70bc 3457 24bd 53bf a43e
000000c0: 4104 4d3f 35b4 0b3f 463f 853d 7a8a e7bc
000000d0: abad bb3e 211f f8bc af39 6d3f 7e9e 033e
000000e0: 9fe7 4a3f b69d e73d e503 403f 6d84 833c
000000f0: d4be d5bc 209d ec3e 4926 0f3d fafa aebd
00000100: 8b6e 71bd c21f 0dbe bde4 573e abbd 4ebe
00000110: e3ed 63be ece1 843c ce20 74bc fb8e 8dbc
00000120: fc0a 853d b00e 45be 6b8b 943d a22b 2e3b
00000130: 3fa5 e53b 0a1e 863c 87ab aa3d 77a3 f43a
00000140: 2c26 e5bd 8fb5 14be e866 c3bc 5b6f a3bd
00000150: a56b ea3c 3581 95bc 0cb7 a93d ddb9 c93d
00000160: 7efc c6bd 0e7d 0e3d 8a2e e0bd b5dd 81bd
00000170: 195f 873c e58d 923d a0cc 983d 2ea2 1fbd
00000180: 1a48 a7bd 0e14 06be 1003 263e 2232 893b
00000190: 075e a73d 4b06 13be d41f ff3d 9db6 17be
000001a0: 9419 5b3d 6b9f ce3d 5198 d4bc 6dda 2f3d
000001b0: b551 01be 76cc 55bd 20b2 293d dc65 383d
000001c0: 4f10 b4bc e093 2cbc ec59 05be 696e 35be
000001d0: 0e6a c73d c99a c73c 33c8 2b3e e0df 45bd
000001e0: 58bf 02be f352 f9bd b2c9 423e c8da 183c
000001f0: f0d3 4e3d c51c 8ebd 2682 1a3d 7cab d0bd
00000200: 3f52 54be d4ca 36be c35b 2d3f 0ff0 1c3e
00000210: 6f29 acbc 8d55 fc3c da26 49bc 6774 463d
00000220: dc8e 203f e900 813e 6531 163e 4166 f93d
00000230: a9e4 483f 1b23 0b3e 28a1 a6be f10c f03e
00000240: 0b4e d73d 4490 e53b 33a6 1b3f c20e 7e3e
00000250: fb5a bdbe acfb 223c 494c e3be 992c 02bf
00000260: 98a8 08be 7e9a 05be e2e4 aa3d 4933 953d
00000270: f550 50be d705 d93e fed0 293f b43e ecbe
00000280: c7b9 143f ae73 bebd 2426 193f 3c7d 60bf
00000290: 6d93 b23e b4cf 263b acbe 25bf 36dc 253e
000002a0: 4870 02be c6e3 91bc 6dda a13e d1a4 e9be
000002b0: 0f55 ba3d 3926 06bb 5a98 f3bd 12c1 6ebe
000002c0: 7b92 5dbd 4b93 d83d 539e 0cbe 28d5 d9bc
000002d0: 911d 92be 3507 b63d 60d0 4e3f 3e4c 3f3f
000002e0: d8a6 033f 621a 1c3e 3f6f 27bf 597e fabc
000002f0: 0ee0 a53d a93d 023f ed45 fa3b 59d0 b3bc
00000300: d294 d43d a9ec 633e c586 3e3e 16b2 953b
00000310: 3c0f 763e 3374 d0bd a104 483e f1c5 4e3c
00000320: 8ea3 0d3e 111b 86bc 0fcf 323c c952 a13d
00000330: 3d06 1e3d 2dc6 c2bd 4c1a c13d 98f6 483d
00000340: 5a65 2a3d 0c82 5e3e 357b cbbb 5ebc 8b3d
00000350: 293f c13d 05d5 053e 2cc9 f73d 5811 703c
00000360: c960 9c3d e177 6a3e e851 183e a70c 6cbc
00000370: 1ed3 343e c0bb 183e ce3a 813d 4695 8fbd
00000380: d39a c33d b1f2 d5bd a6c4 853c 6f65 19bb
00000390: 4c1e dd3d e633 d83d 573b c73d 23f2 dfbd
000003a0: 4e42 d2bd dca6 873d 303f 333e fe63 b83d
000003b0: e4b5 853c f647 94bd 698c e73c 48a4 6fbc
000003c0: ae4c 3d3f 8f62 58bb cca6 993d f598 0c3e
000003d0: da63 433e 1a9f ef3c 7e16 343e 6d6b e43e
000003e0: b857 ae3d 8f86 8e3d e75b fd3d 16dc 0e3e
000003f0: 53b2 0a3d dc7f a63d 856a cc3d 8eb3 69bc
0.42228094 0.01188916 0.63748205 -0.011768783 0.073587626 0.01306999 -0.06448581 0.17190109
0.7329827 0.04008011 0.70441794 -0.04664958 0.6924845 -0.17426306 0.10515768 0.67855805
-0.068179384 0.03549206 0.7137969 0.11577891 0.36046603 -0.0013503428 0.20321213 0.79845166
0.06172212 -0.06799614 0.0968471 0.030605698 0.019061448 0.18425472 0.5744481 0.14881177
0.09452451 -0.031746175 0.45229262 1.1116117 0.09829633 -0.008389046 0.022236573 0.010428141
-0.05793997 -0.0144823715 0.17113392 0.6416281 0.0076217814 -0.0146680605 -0.040122226 0.3217722
0.80084616 0.5457185 0.06506209 -0.028264273 0.36655936 -0.03028828 0.92666143 0.12853429
0.79259676 0.11309378 0.7500594 0.016054356 -0.02609197 0.46213627 0.03494862 -0.08543964
-0.058943313 -0.13781646 0.2108335 -0.2018954 -0.22258715 0.01622101 -0.014900399 -0.017280092
0.06496236 -0.19243884 0.07253154 0.00265763 0.0070082243 0.016371746 0.083334975 0.0018664439
-0.11188921 -0.14522384 -0.02385278 -0.07980224 0.028615782 -0.018250087 0.082868665 0.09849904
-0.09716128 0.03478723 -0.109463766 -0.063411154 0.016524838 0.071559705 0.07460904 -0.038973026
-0.08168049 -0.13093588 0.16212106 0.0041868845 0.08172231 -0.1435787 0.124572426 -0.14815755
0.05349119 0.10089 -0.025951536 0.042932916 -0.12628825 -0.052196942 0.04142964 0.045019016
-0.021980433 -0.010533303 -0.13022584 -0.177179 0.09737025 0.0243658 0.16775589 -0.048309207
-0.12768304 -0.121740244 0.19022253 0.009329505 0.050495088 -0.06939081 0.037721775 -0.10188958
-0.207345 -0.1785081 0.6771814 0.1532595 -0.02101585 0.030802513 -0.012277329 0.048450854
0.62717986 0.25196007 0.1466728 0.121777065 0.7847391 0.1358761 -0.32544827 0.46884874
0.105129324 0.007005723 0.60800475 0.24810317 -0.36983475 0.009947699 -0.44394138 -0.508493
-0.13345563 -0.13047215 0.08344437 0.072851725 -0.20343383 0.42387268 0.6633452 -0.4614159
0.58095974 -0.09299408 0.5982382 -0.8769109 0.34878102 0.002545339 -0.6474407 0.16197285
-0.12738144 -0.017808806 0.31611958 -0.45633557 0.09098255 -0.002046956 -0.11894293 -0.23315838
-0.054094773 0.10574969 -0.13732271 -0.026590899 -0.28538182 0.088880934 0.80786705 0.7472571
0.5142646 0.15244439 -0.65404123 -0.030577825 0.08099376 0.50875336 0.0076377303 -0.021949934
0.10379948 0.22258247 0.18606098 0.0045683486 0.24029249 -0.10178413 0.19533016 0.012620435
0.13831922 -0.016370328 0.010913624 0.07877118 0.038580168 -0.09510455 0.09428844 0.049063295
0.041600563 0.21729296 -0.006209756 0.068230376 0.09435875 0.13069542 0.12098917 0.014652573
0.07635648 0.22897293 0.14874995 -0.014407313 0.1765866 0.14915371 0.06310044 -0.070108935
0.09551015 -0.1044668 0.01632912 -0.0023406406 0.10796794 0.10556774 0.09728115 -0.10934856
-0.10266553 0.06623623 0.17504573 0.09003447 0.016322084 -0.07240288 0.028265195 -0.01462657
0.7394513 -0.003301773 0.07502517 0.13730223 0.19081059 0.02925067 0.17586705 0.4461321
0.08512825 0.06959259 0.123710446 0.13951144 0.03386147 0.08129856 0.099812545 -0.014264001

lstm.bias_hh_l0 f4 [256]
00000000: b7fb c43e 925e e93a 3264 0b3f 8fc1 45bc
00000010: 19be 3a3c 09da 31bd cf5e 67bd d032 fc3d
00000020: 3e13 523f 1cd9 003e f67c 113f 23ea 1c3d
00000030: 283f 193f 48ab 443b 735c 533d 0568 2e3f
00000040: e2e6 8a3d 5f35 413e 708a 2b3f cf5b 193e
00000050: 4257 b23e 9f3f f13d 5b1a 753e 1d4d 603f
00000060: f746 35bd 3a51 d4bd a5ab b9bd 6543 afbd
00000070: 9aeb 443e 510d ac3d 425a 0e3f f1ec c6bb
00000080: 1b4d a53d 7eb4 4fbe 0217 c03e c569 8b3f
00000090: adcf 65bb bf9b 73bd db89 c53c 90d7 cc3d
000000a0: f3f5 e33d 458f ebbc 8ffb 103e f104 243f
000000b0: 407e 443d 0fff c5bd c5ca 2a3e ba38 623e
000000c0: 6df0 3d3f 4375 e63e b28b 15be 2219 85bc
000000d0: f4e9 ab3e 1c19 d43d 9a2e 6a3f 8107 023e
000000e0: 379c 383f 0ce3 79bc 196f 363f 393c 5c3d
000000f0: 89f2 273d d3a9 083f b303 20bd 66c2 59bd
00000100: fa42 193d 3b92 9a3a 37e7 503e 1b0e eebd
00000110: bb17 5ebe 6c4b 6c3d 62f4 03be 6f9e e63c
00000120: c6a9 743e 6ca0 4cbe 3b30 4a3d 5247 12bd
00000130: 4581 c03d cb12 c1bd 0be7 b1bd aa45 a9bc
00000140: e58d 05be 4dfa 9fbd 4c3d cbbd 1325 f63d
00000150: 47de bbbd 5866 0b3d 1451 67bd 4895 9d3e
00000160: 4bd2 fe3b 696d 6e3c 17a2 693d 35c1 5abd
00000170: aab6 37bd 77bf 87bd ec7a a53d 44a3 0d3c
00000180: 02d9 aa3d df71 a1bd b4d7 3e3d b115 b9bc
00000190: 915b 23bc dc9b 773d 7726 073d db31 0cbd
000001a0: 7349 c5bd 8083 07be 0588 ce3d 4057 293e
000001b0: 86a9 69bd f404 e1bd d3d4 833b 6376 1d3c
000001c0: f716 7ebd b6af e93b 5973 2fbe 94e5 21bc
000001d0: fb22 3cbc 625b 37be f77c 833e f56a 46bd
000001e0: 37e0 8abd 814e 08be 2a2b b63e 7639 603d
000001f0: 6e83 aebc 035e 13bd af2e d73c 5ee9 d1bd
00000200: 7f1b c1be 7ed7 aabd d6ce 4e3f ba04 f23d
00000210: 467a 7b3d f380 a4bc b553 3ebd 9b9d c93d
00000220: 7af2 1c3f 2c3b 933e 4ae8 a03d 1047 283e
00000230: 057d 273f 6f7c 5b3d 2362 a7be 6554 e63e
00000240: 8d0d 063d 9685 223d 370e 203f d209 143e
00000250: d276 debe 7848 ba3d 171a ffbe e53d 0cbf
00000260: 20c5 7abd c0c9 49be 3ed6 d13d 9f80 8ebd
00000270: 2670 90bd 6501 b83e 3e98 103f c714 07bf
00000280: 8f5f 0c3f c3aa f6bc a9c9 d43e c0cb 5bbf
00000290: d14f 9e3e bd8f 443c 89f0 26bf d828 133e
000002a0: 84a9 cdbd 2c80 02bd 2f3d 573e 1e06 20bf
000002b0: 231f bc3d 891b 16be be6f f5bd 31ec a8be
000002c0: 1534 fcbd 25ce 813d 6b9e 2dbe adbf 17be
000002d0: 6381 c9be a28e 28bd c08d 3c3f 319b 573f
000002e0: ca7b ea3e 96ba 0b3e efe0 1dbf 6355 293d
000002f0: 5563 843d 46cf 1c3f 59b2 f4bd 99c6 f23d
00000300: ed5c 6f3c 3f0a 663e d358 133e d8e9 ae3d
00000310: de5a e73d 8200 2a3d a3bc 1f3e c3cb 323e
00000320: c649 023e 227c 283e e90b b2bc dea8 3dbc
00000330: c4cb af3c afc8 b93d 6a56 c13d 1251 873d
00000340: 0a2a 023e 5f1b 903e 1e7f 023e 4c9a 143e
00000350: 9c81 71bc 77e8 ea3d 4030 713d 4341 d8bb
00000360: 9f8a 743d e60e 0f3e b0d8 c03c d258 5d3d
00000370: daf4 133e 9cad 1d3e 7a3a b23b eecf 6abd
00000380: 360a 103e 52ad 54bd 1ddd 013e ae8c 29bd
00000390: f7d7 143e 6b8d 8bbd 62fd 46bd 3e92 25bd
000003a0: de8c 683d 6f89 363d de21 d03b d7e6 153e
000003b0: b4d4 193d 542d 883b 9047 943d 9edc ca3d
000003c0: 509e 293f a79f 38bd 90a0 debd 931f 2a3e
000003d0: 96a9 c33c 5ab7 033e c0a0 263e 379c bf3e
000003e0: 7aab 02bc 8e54 c2bc ea7b 563b b628 6bbd
000003f0: d6d6 083e c42c 093e 1642 c0bd 34af 23be
0.38473293 0.0017804673 0.5444976 -0.012070074 0.011397862 -0.043420825 -0.0564869 0.12314379
0.8206061 0.1258282 0.568313 0.038309228 0.59861994 0.0030009318 0.05160184 0.6812747
0.06782319 0.18868016 0.67008114 0.14976428 0.34832197 0.11779713 0.23935835 0.87617666
-0.04425713 -0.10367055 -0.09065942 -0.08557776 0.192305 0.084009774 0.5560647 -0.006070726
0.08071347 -0.20283696 0.37517554 1.0891653 -0.0035066411 -0.059474703 0.024113586 0.10002053
0.111308955 -0.02875484 0.14158462 0.6407004 0.047971964 -0.09667789 0.16678913 0.22091952
0.74194986 0.4501134 -0.14604071 -0.016247336 0.3357693 0.10356352 0.9147736 0.12698175
0.72113365 -0.015251886 0.7126327 0.05376837 0.041002784 0.5338413 -0.039066028 -0.05316391
0.03741739 0.0011792848 0.20400701 -0.11623784 -0.2168874 0.057689115 -0.12886193 0.028151719
0.23892888 -0.19983071 0.049362402 -0.035712548 0.09399656 -0.094274126 -0.08686646 -0.020663101
-0.1304241 -0.07811413 -0.09923801 0.1201879 -0.091732554 0.03403315 -0.056473807 0.30777955
0.0077765337 0.014552453 0.057039347 -0.053406913 -0.044851936 -0.06628316 0.08080086 0.008644883
0.08342172 -0.07883047 0.04659243 -0.022593351 -0.009970562 0.060451373 0.032995667 -0.034227233
-0.0963315 -0.13233757 0.100845374 0.1653719 -0.057046436 -0.10987273 0.0040231734 0.009610745
-0.06203362 0.007131542 -0.17133845 -0.009881396 -0.011482949 -0.17905954 0.25681278 -0.048441846
-0.06781047 -0.13311197 0.35579807 0.0547423 -0.021302905 -0.03597833 0.026267378 -0.102495894
-0.3771629 -0.08341883 0.80784357 0.11817308 0.061395906 -0.020081019 -0.046466548 0.09844514
0.6130749 0.28756082 0.078568056 0.16433358 0.6542514 0.053585466 -0.3269206 0.44986263
0.032727767 0.03967818 0.6252169 0.14456871 -0.43450028 0.090958536 -0.49824592 -0.54781944
-0.06122315 -0.19705868 0.102459416 -0.06958126 -0.070526406 0.35938564 0.56482303 -0.5276608
0.5483331 -0.030110722 0.41560104 -0.8585777 0.3092027 0.0119971605 -0.6521078 0.1437105
-0.10042098 -0.031860515 0.21019433 -0.62509334 0.09185626 -0.14658941 -0.11984204 -0.329927
-0.12314621 0.06338147 -0.16954963 -0.14819212 -0.39356527 -0.04115165 0.73653793 0.8422118
0.4579757 0.13645396 -0.61671346 0.041341197 0.064642586 0.61253774 -0.119480796 0.11854286
0.014609558 0.22464846 0.14389353 0.08540696 0.112966284 0.04150439 0.15599303 0.17460541
0.12723455 0.16453603 -0.021734195 -0.011575906 0.021459468 0.090714805 0.0944031 0.0660726
0.12711349 0.28145882 0.12743804 0.14511985 -0.014740374 0.114701204 0.058883905 -0.0065995767
0.059702512 0.13970527 0.023540825 0.054039784 0.14448872 0.15398258 0.0054391 -0.057327203
0.14066395 -0.051923104 0.12682004 -0.04139393 0.14535509 -0.06814083 -0.04858149 -0.04042267
0.056774966 0.04456466 0.0063516935 0.1463884 0.037556365 0.004155794 0.07240212 0.09905361
0.6625719 -0.04507413 -0.108704686 0.16613607 0.023884576 0.12862912 0.16272259 0.3742387
-0.0079754535 -0.02372196 0.0032727667 -0.05741187 0.13363203 0.13395983 -0.09387605 -0.15984803

lstm.weight_ih_l1 f4 [256, 64]
00000000: e145 33be a70c 743e 1bc3 c43d abc2 bcbd
00000010: 5d36 943d 428e aabd 73c2 143e 00e0 d0bd
00000020: 4c48 4b3d d6c2 02be 5aab 50bc 4544 003d
00000030: ba1a 023e d47a bf3d ae26 593c 766f c03d
00000040: e8f6 21bc d955 e93c 0c32 bc3b 5f31 073e
00000050: d087 4b3d e1f4 c2bd ec7e 903d 0752 eabd
00000060: a7b7 1a3e 7a55 533c 860e 05be c9ef 273d
00000070: 759a 0bbd 5f93 3c3e 1568 b7bb 05df 39be
00000080: 2cd2 143d 9b65 ba3d 29d9 4b3d efec 1dbc
00000090: 6614 8c3d eaf6 34be a8a8 89bb 903f f9bc
000000a0: 0bba edbd 77b4 d13d 9bcd 6bbd a703 9b3d
000000b0: 00c1 6ebd 0928 fdbd c47e 413c f8b7 bcbd
000000c0: 5ec0 523d f9de db3d 8b55 213d a9e2 813d
000000d0: 6f93 0cbe 387a 5abe 0791 5f3d 51f9 d03d
000000e0: c5cf 513d 2a9b 4dbe 7dd5 b2bd 0c51 f83c
000000f0: 0d9f 12bb c6d7 523e 5c25 bc3a 7aa8 04be
00000100: 3fb0 c9bd 09f1 7b3d ba76 9fbd 6c3a 4e3d
00000110: a8ee 50be c93d 3c3c 1780 633d 8e0e 0dbe
00000120: 2896 fdbc a2e2 8abc c553 8ebd 8f1f eebd
00000130: e35c 203d 92ce b73e 5f52 a3bd 7493 1ebc
00000140: a282 f43d 6609 2abd a038 603c 1783 febc
00000150: a101 65bd db7a c5bd 555f e0bd 715f c5bb
00000160: e8a1 93bc 43b3 3abd 48a7 cb3d dda0 5dbe
00000170: f96a 213e c52e fe3d efa5 b53d e461 6b3c
00000180: 10f0 be3a f223 793e 0520 78bd 392b 7cbc
00000190: 2cc6 993d fb11 1b3d 4a3b 2cbc 37c9 debd
000001a0: 9195 fbbd 8355 303e 972a 67bc 54a2 f43c
000001b0: eb8a 843e 8351 183e 031b df3c d589 23bd
000001c0: d889 e43c 2f08 b1bd 4ca7 c73d e9da 42be
000001d0: 7c23 b73c dcaa 26be db50 363c 10e8 29bd
000001e0: cbe3 083e dbcd 4b3d 3432 4cbd db79 873c
000001f0: 6155 0abe bed2 dcbd ae16 85bd aff9 2d3e
00000200: 2f5e 64be 3175 64be 38e9 533e 62cb f23d
00000210: 66a3 fa3c 4926 dcbd 58f9 6f3d bb45 223e
00000220: a4c0 c63d d4f2 f93d cfe0 2ebc 6f19 d23d
00000230: b8c2 c73d 0d15 183d dc32 61bd a50a b9bd
00000240: c865 fe3d 7074 acbd f3bd b93d 0eee bcbd
00000250: 7309 93bd 3c93 d5bd 364e d5bd 070d dd3c
00000260: 7eba a13d 94e6 74bd e9a1 1e3d ba5d ebbd
00000270: 328f a2bc 3c90 123e 496c 013d 3583 f3bc
00000280: 08f4 91bd 58bd 69bd 38c9 a83d ba73 34bb
00000290: 82fd ab3d 3e93 4fbe 1b12 bc3a 89c2 643d
000002a0: 813f c0bc 4205 2ebd 2c33 c53d c6d8 31be
000002b0: db48 ad3d 9bcf 60bd 7599 5c3c d7b5 93bd
000002c0: dd25 903d 3a8e b3bd 89dc 72bd d299 d63c
000002d0: 37d1 11be 7e6a 09bd f949 1f3e 04dd 903d
000002e0: 30a7 21bd ab62 0b3e c01d 31be d901 d63d
000002f0: e0e1 16be 4b4f 75bd 34f8 69bd cd6e 89bb
00000300: a01a 89be 9f74 853e ebb3 843e 6943 fbbd
00000310: 565d 2e3c 5585 003e e319 8f3e 87ac f63c
00000320: 32a5 d33d 7a82 bcbd 750e b03d 6768 613d
00000330: 79d5 173d 31c5 813e bf78 033d 1acf 703d
00000340: 8021 9b3d 0b49 03be a23f 043e 4557 8a3e
00000350: 4e83 6cbd f3bf 22be aa80 50be 8a9e 18be
00000360: 123a bf3d 367a 28be 6d96 89bc 0e09 e53d
00000370: 7fdd 65be 0e15 8a3c bfdd 333d ee78 0bbe
00000380: b0e5 8d3e 1ff4 b5bd 16d8 263e 333f e7bd
00000390: 5463 4f3e 1b1e d5be 93e5 69be 9bd7 423c
000003a0: 7961 5abe 3e87 0f3e 3c00 553d 32f8 7a3c
000003b0: 2cbf 283e d4e6 433e b619 2abe e3e1 ba3d
000003c0: 217a 55bd 7e6d 6d3e dd42 97bb 0514 123e
000003d0: aa52 8bbc 90d4 9a3c b409 373d 1ca7 1f3e
000003e0: d647 0f3e 6178 253e d7da 06bd aae6 583e
000003f0: 09bd 03be 1054 023e 8464 37be 1161 1d3e
-0.17507125 0.23832951 0.09607526 -0.092168175 0.072369315 -0.08327915 0.14527301 -0.101989746
0.049629495 -0.12769637 -0.012736166 0.031315107 0.12705508 0.093495995 0.013253851 0.093962595
-0.009885527 0.028483318 0.0057432707 0.13202427 0.049690068 -0.09519363 0.070554584 -0.11441427
0.1510912 0.012898797 -0.12993822 0.04100016 -0.03408285 0.18415593 -0.0055971243 -0.18151481
0.036333248 0.09101411 0.049767647 -0.009639009 0.06839828 -0.17672315 -0.0042010136 -0.030425817
-0.116077505 0.10239499 -0.057569128 0.07569056 -0.058289528 -0.12361152 0.011810008 -0.09214777
0.051452987 0.10735888 0.03938822 0.0634206 -0.13728116 -0.21335685 0.05458167 0.10203803
0.051223535 -0.20078722 -0.08732126 0.030312084 -0.0022372634 0.20590124 0.0014354396 -0.12954894
-0.098480694 0.061509166 -0.07786317 0.050348684 -0.2040354 0.01148934 0.055542078 -0.13775083
-0.03095539 -0.01695377 -0.069495715 -0.11627113 0.039151084 0.35899788 -0.079746954 -0.00967871
0.11938979 -0.04151287 0.013685375 -0.031068368 -0.055909757 -0.096425734 -0.10955683 -0.0060233404
-0.018021539 -0.045581114 0.09944016 -0.21643396 0.15763463 0.12411264 0.0886954 0.014366601
0.0014567394 0.24330118 -0.06057741 -0.015391164 0.075085014 0.037858944 -0.0105121825 -0.108782224
-0.12284387 0.1722012 -0.014109275 0.02986256 0.25887236 0.14874844 0.02723456 -0.03992637
0.02789776 -0.08644139 0.09748706 -0.1902882 0.022355787 -0.16276115 0.011127676 -0.041481078
0.13368146 0.049756866 -0.049852565 0.016537597 -0.13509132 -0.107823834 -0.064984664 0.16989778
-0.22301553 -0.2231033 0.20694435 0.118551984 0.030595493 -0.1074949 0.058587402 0.15846913
0.09704712 0.12204519 -0.010673716 0.10258757 0.097539365 0.03712945 -0.054980144 -0.090352334
0.12421757 -0.08420646 0.09069433 -0.09225093 -0.07179537 -0.10428473 -0.10415308 0.026983751
0.07896899 -0.05979021 0.03872863 -0.11492486 -0.019843671 0.14312834 0.03159741 -0.02972565
-0.071266234 -0.057065338 0.082415044 -0.0027534799 0.08397962 -0.20271012 0.0014348658 0.055849586
-0.023467781 -0.042485483 0.09628901 -0.17367849 0.08461162 -0.054885488 0.013464321 -0.072124176
0.07038472 -0.08767362 -0.05929235 0.026196394 -0.14239965 -0.033548824 0.15555562 0.070734054
-0.039466083 0.13611858 -0.17296505 0.10449571 -0.14734602 -0.059890073 -0.05712147 -0.0041941167
-0.26778126 0.26065537 0.25918517 -0.12268717 0.01064237 0.12550862 0.27949437 0.030111564
0.10334243 -0.09204574 0.085965075 0.055031206 0.037068818 0.25345758 0.032097574 0.058791257
0.07574749 -0.12820832 0.12914899 0.27019706 -0.05774241 -0.15893535 -0.20361581 -0.14904228
0.09337248 -0.1645287 -0.016795361 0.11183368 -0.22447775 0.016855743 0.043912645 -0.1362035
0.277143 -0.08884453 0.16293368 -0.11291351 0.20252734 -0.4162453 -0.22841482 0.011892225
-0.21326245 0.14016435 0.052002177 0.015317963 0.16479176 0.19131023 -0.1661137 0.09125116
-0.052118424 0.23186299 -0.004616125 0.1426545 -0.01700719 0.018900186 0.044686988 0.15591091
0.13992247 0.16159202 -0.032923546 0.21181741 -0.1286508 0.1272738 -0.17909437 0.15369059

lstm.weight_hh_l1 f4 [256, 64]
00000000: 34c6 603d 0d35 313d a13f 8b3d 14ab 94bd
00000010: f447 95bc 13ea 3fbd 2b93 e7bc 5719 90bd
00000020: 1df0 66bd 5db8 0b3e d2fb f4bd 722f 1dbe
00000030: 136a a4bc a7de ec3c 1af9 f5bd b9e7 1c3d
00000040: ef74 0cbe 0679 c83b a16f 943c fd36 92bd
00000050: 0752 3cbd 1264 1abe 7bf1 09bc 55dd 3cbd
00000060: b14b 70bd ec29 ff3b ebaf 7a3c 4dcd 15be
00000070: 4148 0cbd 4bc9 873c 689f 0d3d 76a8 b0bd
00000080: b63d b33d c4ef 9c3b bac8 8cbd 9da6 be3d
00000090: 63ac 613d 9dc8 d2bd cda1 2bbd 421f f23d
000000a0: 738b f03d e145 94bd 8c7b 133d c134 01bd
000000b0: 38b7 ad3b eb40 9cbd bb71 b13a 382c 3ebd
000000c0: 342a 5b3d 4259 dc3d a502 90bc f1e6 e9bd
000000d0: 689d 883d 978c 49bd ad62 dc3d 166b 03be
000000e0: 0996 8e3d 16a4 79bd cdda acbd e4b9 55bd
000000f0: 5558 ad3d d06c 093e de7d 71bb 96ac b9bd
00000100: 530e 6d3e 5d62 1c3e 94e0 eebd 77fb 0b3e
00000110: cb81 f03d b9e9 26bd 9722 833b b15b 553b
00000120: a94e 713c 63d8 a1bd bff1 bbbd 70ff 603d
00000130: ab6f 0b3d 7afb f9bb d57d 733d 9fd2 8b3d
00000140: 15de ddbd b432 08be b2a2 9c3c 6c48 afbc
00000150: acfd 9ebc ee82 24bd aa71 0d3e 2bb4 a8ba
00000160: 4ea9 de3c 52e6 84bd b468 0abd 6d75 e7bd
00000170: 7f6f 473c 8547 c23d 448b c6bd cd88 c83d
00000180: 16fb 9b3d 1ee0 94bd fc13 c43d 5f30 1dbc
00000190: bfe1 073e 58d0 8e3d f759 a0bc b437 9abb
000001a0: 8244 80bd cfa8 0d3d d56d f73d 0513 36bd
000001b0: 330c 03bd e60d bebb b608 603e 2d24 2e3d
000001c0: e3bd 123e 601e 7f3c b0d1 0bbd 62fe e4bd
000001d0: ef2e 253e 3413 72bd 3162 3d3c 4980 d33a
000001e0: e8d7 79bd 571d 7dbd dad0 ee3c ae90 bf3d
000001f0: 0d60 15be 3f0f e53d 4ef9 ab3d 82ed 023e
00000200: cb0a 153e b116 92bd e626 aebd 77c0 be3d
00000210: aafa e33d 3ccc c6bd b7df 133c df21 de3d
00000220: ed70 f53d a867 aa3d b10d b83d e3aa 81bc
00000230: ecec 073d 3b1c 823d a7e1 00be 85f3 613d
00000240: 2dea 883d 3f18 1b3d 1ea8 0fbe e59c 41bd
00000250: fef2 d5bd deed 90bb 3d06 e73d 6df2 61bc
00000260: e2d4 a73c 3e39 153e c487 8fbd 45da 113e
00000270: 4b05 03bc 827a 51bd 828d 85bd 033f edbc
00000280: e773 4f3d 3d85 05be 4333 4ebd 08c7 e0bd
00000290: d83e 87bd 85da 8abc e044 913d 6b50 cfbd
000002a0: 6254 46bd f5a6 d93d f363 123e 9759 8ebd
000002b0: 0c0c 953c 92e7 113e 8aaa 48bc 609c 103e
000002c0: e818 e0bd ea07 7d3d 9eef b43d f261 c1bd
000002d0: ac0a cb3b 0ba6 f8bb 70c0 bd3c f01a cabd
000002e0: 7939 c9bd 725b 08bd ff7e a1bd b116 043e
000002f0: ee06 b33d 99fe bf3d 0452 73bd 1ba8 3cbd
00000300: e9d7 753c 83e8 923e 7ce1 6bbe 57e2 51bd
00000310: a40e eebc 0a66 733d 5989 31bd 1df5 50be
00000320: 85c5 dcbc 432e 283e af78 6a3e 396a 0dbe
00000330: c9a3 85bd 55c0 c53d 551e ea3d 95a2 053e
00000340: f291 f6bd 1c29 993d 9e52 e2bd 4732 2f3e
00000350: a47e 2a3c 4012 68be 05ae 1f3e 80da c63d
00000360: 9fcd 25be 10cb fc3b 2de1 5fbe 17d8 32be
00000370: deb8 343d 9bc1 abbd de33 933c a791 213d
00000380: c20d 1c3e 1b55 523e e44e 953d 9ef2 42bd
00000390: 1ccf b83d 5ab2 8c3d da93 563d 6fc3 c73b
000003a0: ff09 d73d 6f90 283e f891 34be e581 92bd
000003b0: 1c78 2e3c 6c0e 8fbd 089a 513e 20c8 733d
000003c0: b23c 903e 64a0 96bc 5952 b6bd 6b28 2d3d
000003d0: 0497 b33d 4e49 5fbd 67a5 a13d 4227 1ebd
000003e0: e031 b63d c055 27be 9dea 7cbc b91e 653e
000003f0: 35cb 03bd 6142 073d 8fd3 3cbe 2b9e 38bd
0.05487652 0.043263484 0.067992456 -0.07259193 -0.018222786 -0.04685409 -0.028268417 -0.07036083
-0.056381334 0.13644548 -0.119620934 -0.1535013 -0.020070111 0.028914763 -0.12010403 0.038306925
-0.13716482 0.0061179427 0.018119635 -0.071393944 -0.045976665 -0.15077236 -0.00841939 -0.046109516
-0.058665935 0.00778698 0.015300731 -0.14629097 -0.034248594 0.016575476 0.03457585 -0.086258814
0.08752005 0.0047893245 -0.06874223 0.09309123 0.05509604 -0.1029217 -0.041902352 0.11822368
0.11745348 -0.07239891 0.036006495 -0.03154445 0.0053013824 -0.076295696 0.0013537923 -0.04642889
0.053507045 0.10759212 -0.017579386 -0.11421002 0.06670648 -0.049206343 0.107610084 -0.12833819
0.06962211 -0.0609475 -0.084401704 -0.052179232 0.084641136 0.13420415 -0.0036848704 -0.09066121
0.23149996 0.15271898 -0.11663929 0.13670145 0.11743506 -0.04075024 0.004001926 0.0032555873
0.014728227 -0.079026006 -0.09176969 0.054931104 0.03404204 -0.0076288553 0.059446175 0.06827282
-0.108333744 -0.13300592 0.019120548 -0.021396838 -0.01940807 -0.040163927 0.1381289 -0.0012871077
0.02718034 -0.064892426 -0.03379126 -0.11301694 0.012172579 0.094862975 -0.096945316 0.09791718
0.0761625 -0.072693095 0.09574124 -0.009594052 0.13269709 0.06973332 -0.019574149 -0.0047063474
-0.06263067 0.034584817 0.12081496 -0.044451732 -0.031994056 -0.0057999967 0.21878323 0.04251497
0.14330249 0.015571207 -0.03413552 -0.11181332 0.16131185 -0.059100345 0.011559055 0.0016136254
-0.06099692 -0.06179556 0.029152323 0.09353767 -0.14587422 0.111845486 0.083971605 0.12785915
0.14554898 -0.07133234 -0.08503513 0.093140535 0.11131795 -0.09706923 0.009025506 0.10846304
0.119844295 0.08320552 0.089869864 -0.015828555 0.03318493 0.06353041 -0.1258608 0.05516388
0.066852905 0.03786492 -0.14028975 -0.047268767 -0.10446738 -0.004422887 0.11280487 -0.013790709
0.020487253 0.14572617 -0.07008317 0.1424342 -0.007996867 -0.051142223 -0.06521131 -0.02896071
0.050647642 -0.13039108 -0.050341856 -0.10975462 -0.06603783 -0.016949901 0.07093215 -0.101227604
-0.048420317 0.10627548 0.1429594 -0.06950682 0.018194221 0.14248493 -0.012247691 0.14122152
-0.109422505 0.061775126 0.08834766 -0.0944251 0.0061963405 -0.0075881532 0.02316305 -0.09868419
-0.09825415 -0.033290334 -0.07885551 0.12899281 0.08741556 0.093747325 -0.059404388 -0.046058755
0.01500509 0.28693017 -0.23035234 -0.051241245 -0.029059716 0.059423484 -0.043343876 -0.20406003
-0.026949653 0.16423897 0.228976 -0.13810052 -0.0652538 0.09655825 0.114315666 0.13050301
-0.120395556 0.07478544 -0.11050914 0.17109023 0.01040617 -0.22663212 0.15593727 0.09709644
-0.1619172 0.0077146366 -0.21863241 -0.17465244 0.044121616 -0.08386537 0.017969068 0.039445546
0.15239623 0.20540278 0.07290438 -0.04759466 0.09023878 0.06869955 0.052387096 0.0060962955
0.104999535 0.16461347 -0.17633808 -0.07153682 0.0106487535 -0.06985173 0.20468915 0.059517026
0.28171307 -0.018387027 -0.08902425 0.042274874 0.08769038 -0.05451327 0.07892876 -0.038611658
0.08896232 -0.16341305 -0.015436796 0.22375001 -0.032176215 0.03302229 -0.18440078 -0.045072716

lstm.bias_ih_l1 f4 [256]
00000000: eed3 f83d 39a0 033e 445b 473e 515c 833e
00000010: bf89 3c3e 71d3 9d3c 4f1d 833e d740 273d
00000020: f2f3 6d3e 59bc 893e e0d2 5d3d 5890 b73e
00000030: 0d40 6dbd c84a 563e 2d50 3f3e 4052 bb3c
00000040: 7848 bb3a 56d1 9a3e bfaf 9b3e c4bf 9b3e
00000050: 4033 df3e c309 d13d aecd 893c 9376 d03e
00000060: f562 4a3e 205e c53d 958a 893c 3458 f1bd
00000070: b418 3f3e d096 87bb 7269 873e 7169 a93d
00000080: 0ae9 76bc 7768 af3e 2b99 5b3e 396b 113d
00000090: 9b41 98bc 871f 8c3e 096a be3d d1ba b43e
000000a0: e519 c93d f8ce 943d 5ee8 8d3e a2fe d13d
000000b0: 9b87 723d 44be 8e3d b2e9 0fbc 63ef df3e
000000c0: 2b22 6e3d 4161 e43d 18ca 7c3e 4d8a d43e
000000d0: c266 4d3e e456 a3bd 629f 7e3d 98f8 b1bc
000000e0: 9683 313e 55dc 923d c69c f43e 7f43 403e
000000f0: 4d35 6f3e c6e5 2f3e 0f76 153d d9af 953e
00000100: 6c46 24bd e936 26be c81c ebbd 6361 84bb
00000110: 5455 6e3d 5f4d a1bd e2c7 f2bd 4e7f d63d
00000120: b152 44bd 5d0c 463d 35a1 04be 1080 e6ba
00000130: f93a e43a f670 5f3c ed63 cebd 46f3 99bd
00000140: e691 5b3d 0a10 c33a b1b0 153d 59e4 84bd
00000150: 05b5 8ebb ee9e 9e3d 1d88 96bc c0eb 933d
00000160: 2c7c 8e3d ac19 39bd f190 28be 506e 11be
00000170: c2a5 f0bd 64e0 c8bd 5f27 013d 3d5c bcbd
00000180: b305 dfbc ba2a 003c f774 94bd 2a9d fdbc
00000190: 9434 da3c 71e5 3fbd 9783 773d b0ed 193e
000001a0: 7cf7 123d 0274 0cbe 54ba 11be 7816 95bc
000001b0: 63cc 633d ae95 03be 4959 07ba 75e7 d9bc
000001c0: 323a 223d 7b7c 7ebd 74ff 393d 7bd1 11bc
000001d0: db10 ff3d d3f6 a1bc 75c4 dfbd fbe2 bc3d
000001e0: 301b cfbd c0ed 813d 6c4f be3d 9325 e03d
000001f0: cf55 78bd 9d22 d3bd e5c6 7fbd fc13 b43b
00000200: 979e 6f3c ff2d c0bd ef92 5abe 2f3d 023d
00000210: 1cef 393e b02b 95bd 02c4 dc3c 32d3 1dbe
00000220: f95f 06be f913 453e 891c cebb 0855 bd3c
00000230: 09f0 a53d 5f46 403d 2ea4 193e 213b 2a3d
00000240: d360 b43d 6c82 453e 649e 73bd 81aa 043e
00000250: 841d 363e 05e1 913d 5ba7 a3bc b426 16be
00000260: b79a f9bd a1c0 e43d 942f 543d 5cac bbbd
00000270: 4267 0d3e 974b 043d 6a12 713e 1c90 583b
00000280: c802 943d fa91 9ebb d5ee e83d b22d 16bd
00000290: 679d 293e 4151 53bd 1dae 933d a22e 853e
000002a0: 0585 823d 4ab2 853d fd0a 29be 80e3 9d3d
000002b0: 145b 3c3d 4884 7d3d 00a3 fe3c 342f 663e
000002c0: 9c26 98bd 2adf 783d 38e5 01be 2ab3 4ebe
000002d0: 50d7 223e a9b6 ed3d 9126 c2bd 5e70 0b3c
000002e0: b9cd f6bd 8cd0 29be e735 943e 8baf ca3d
000002f0: 7c5b 74be 09d2 543e 1d6b cf3d bd9b 463e
00000300: f971 753e 7157 393e 2012 203d 0497 24bd
00000310: 1834 01bc 64ec a83d 187f b23d ccfc c03d
00000320: e3f4 e63d 22cf 3dbd caa2 9d3e 45ac 563c
00000330: 5757 a03d 1139 3b3e d00e 153e fa5f 913d
00000340: aeeb a13d 353a a63e 2416 6a3e 1e3a 153e
00000350: 09e5 92b9 11d4 efbc 866f acbd a9dc 953c
00000360: f4d6 923b 8793 c23d 9319 783e c4bc b7bc
00000370: 951c 353e 8fcf 953c 85f5 8d3d 715d 123e
00000380: 02bb b3bd 9664 2a3e f926 e23c 3a94 8bbc
00000390: 3744 803d cfe3 dc3e 41fd 06be df73 193d
000003a0: f26a 843d 824d 8b3d da41 613e 9dad 643e
000003b0: 4164 213e 96c0 723e 7846 5d3e be42 e53d
000003c0: 1360 963d b262 8a3c 524b 823e 63a3 87bd
000003d0: 1090 1c3d ae4f 803d c995 10bd ce0f d93d
000003e0: d804 243e fa2f 023e 563b 41ba 7054 a13d
000003f0: 6c37 cfbd 1677 8f3c 0041 98bd 1d03 c83e
0.121497974 0.12854089 0.19468409 0.2565637 0.18411921 0.019265862 0.25608298 0.04083332
0.23237589 0.2690151 0.054156184 0.35852313 -0.05792241 0.20926964 0.18682928 0.022866368
0.0014288565 0.30237836 0.3040752 0.30419743 0.43593788 0.1020694 0.016821709 0.40715465
0.19764312 0.096370935 0.016789714 -0.117844015 0.18661767 -0.0041378513 0.26447636 0.082720645
-0.015070209 0.34259388 0.21445148 0.035502646 -0.01858597 0.27367803 0.09297568 0.3529878
0.09819392 0.07266039 0.27716345 0.102536455 0.059211355 0.06969884 -0.008783745 0.43737325
0.058138054 0.11151362 0.24686468 0.41511765 0.2005873 -0.079755574 0.062163718 -0.021724984
0.17335352 0.07170931 0.4777586 0.18775748 0.23360176 0.17177495 0.036489543 0.29235724
-0.040106222 -0.16231884 -0.11480099 -0.0040399297 0.058186844 -0.078760855 -0.11854531 0.104735
-0.047930423 0.048351634 -0.1295212 -0.0017585773 0.0017412595 0.013637772 -0.10077653 -0.07517104
0.053605936 0.0014882099 0.03654546 -0.06488866 -0.0043550753 0.07745157 -0.01837545 0.072227
0.06957278 -0.0451905 -0.16461541 -0.14202237 -0.11750366 -0.09808424 0.031531688 -0.091972806
-0.027224397 0.007822687 -0.07248872 -0.03095873 0.0266364 -0.04684967 0.06042823 0.15032077
0.03588055 -0.13716128 -0.14231235 -0.01819919 0.05561484 -0.12850067 -0.0005163146 -0.026599625
0.03960628 -0.062130433 0.045409635 -0.008900042 0.12454387 -0.019771015 -0.10926143 0.092229806
-0.101126075 0.06344175 0.09292492 0.10944667 -0.06062871 -0.10309336 -0.06244554 0.0054955464
0.014625213 -0.09383773 -0.21345113 0.03179663 0.18157619 -0.07283723 0.026948933 -0.15412596
-0.13122548 0.192459 -0.0062900227 0.023111835 0.08102424 0.04694211 0.15004036 0.041560296
0.0880753 0.19288033 -0.059477225 0.12955667 0.17784697 0.07122997 -0.019977262 -0.14663202
-0.12187713 0.111695535 0.051803187 -0.09163734 0.13808921 0.03229865 0.2354218 0.003304488
0.07227093 -0.004839179 0.113736786 -0.036664672 0.1656395 -0.05159116 0.07210944 0.2601214
0.06373028 0.065281466 -0.16508098 0.07709408 0.045985296 0.06189373 0.031083584 0.22478944
-0.07429239 0.0607597 -0.12685096 -0.20185533 0.15902448 0.11607105 -0.09480012 0.008510677
-0.12050957 -0.1658346 0.28947374 0.098967634 -0.23863024 0.20783247 0.10127852 0.19395347
0.23969258 0.18099762 0.039079785 -0.040183082 -0.007885955 0.08248213 0.087156475 0.09423217
0.11277177 -0.046340115 0.3078826 0.013102596 0.07829159 0.18283488 0.14556432 0.07098384
0.079062805 0.32466283 0.22860008 0.14572951 -0.00028017935 -0.029275926 -0.08419709 0.018293696
0.004481191 0.09500795 0.24228506 -0.022428878 0.17686684 0.018287448 0.06931595 0.14293458
-0.08775903 0.16639933 0.027606474 -0.017038453 0.06263011 0.43142554 -0.13182546 0.03746402
0.06465711 0.06801893 0.21997777 0.22331853 0.157609 0.23706278 0.21608913 0.11194371
0.073425435 0.016892765 0.2544809 -0.066229604 0.038223326 0.06265198 -0.035299096 0.10598718
0.16017473 0.12713614 -0.00073712075 0.07877433 -0.10117993 0.01751284 -0.07434273 0.39064875

lstm.bias_hh_l1 f4 [256]
00000000: 2f23 b73a d1e1 dabc 7895 d73c 496e f53c
00000010: 7121 a23e 14a6 753e 0e1d 583e 4ea0 613e
00000020: ec5e 723e ed30 dc3e 908f ec3d b0e5 993e
00000030: c53a 593d 1f0d 163e 1b13 2f3e 128f 3f3d
00000040: e0fc 943c 0510 423e 1305 8b3e 4e03 673e
00000050: 9cde d63e c1b3 643d 8a3b 87bd 492a bf3e
00000060: 737f 133e 2638 f93d 7470 0d3e e923 b2bd
00000070: 703b fe3d bf28 d23d f5ec 9e3e 2369 383e
00000080: 469a 463d 69a9 7c3e 22d2 ba3e a772 223d
00000090: 85e4 a0bc 0d8c d93e 4961 793e a1be 863e
000000a0: d9c2 243e b5f6 433c a86a 8f3d dc28 943e
000000b0: 09eb 7c3e 9385 193e 3a45 95bc 8946 843e
000000c0: 1f06 c3bd 5b5c c03d 5ae5 a23e f12a c43e
000000d0: 0cfd 813e c790 f73d ef7a 9a3d c100 463e
000000e0: 9ce7 0e3e 6276 813e e2ca 973e 5f1e 233e
000000f0: d1b4 893e db3b c43e 759e 6f3d 9a7b a53e
00000100: 0f3d 973d 6463 b33b 6b22 a93c fc0b 8b3c
00000110: 0eb3 37bd f97c 8cbd 4c6f c5bd 124d c1bd
00000120: a3bf fd3d 539b b9bd 22da f1bd 98a3 9bbd
00000130: afde c33c fc0a 653c 08b9 2bbb da38 dd3c
00000140: b65e af3d bdaf f9bc 12bd f93c 7937 bfbd
00000150: 533a 073e 4abe 9e3d 66fb 043d 8eb6 29bd
00000160: 7cdd aa3d 58b9 0dbd 198d 39be 0a26 1ebe
00000170: 9660 b53d e418 f9bd ac34 a23c c8ad d93c
00000180: 3084 aabd 9dd2 ffbd eb13 c73c 31c9 2b3d
00000190: 535e 183e 01d9 623d d7ea d0bd 3964 913d
000001a0: 31a7 d63d 5473 22bc 8781 3cbd 9e77 dcbd
000001b0: 9b65 3bbe 7585 0fbd 5246 d2bd 56eb 953d
000001c0: 6030 27bd 41c2 fcbd 08ae c1bd d96f f53d
000001d0: 0682 aabd fdbc b93d 2143 fe3d 0aff 9e3d
000001e0: 90a3 76bc 1232 a4bd 4f5d b53d d719 dfbc
000001f0: 6573 8abc 0be2 ed3c cdc8 1cbe f9bc dd3c
00000200: 79e7 273d 679e d8bd e837 c5bd e964 953d
00000210: 0c98 3d3e 74de 15bd b5a2 483c 0515 b9bc
00000220: f3ae 83bc 3eb6 4a3e a5e4 42bd a8b7 fc3c
00000230: 31b9 d63b 2888 ea3c e304 a23d 4e7a e3bd
00000240: 233e c8bd c64f 4cbd 064f 62bd 255b 4c3e
00000250: 87de 833e ebf7 aabd 0819 2e3d 52e7 bebe
00000260: 8448 4dbe b58c d8bc 90c7 123d 08a9 733d
00000270: 1d8a 673e a0d2 c13c 5c0a 873e 6d08 2e3e
00000280: e5d3 243d 34fd 0a3e f710 b33d b7c9 123e
00000290: 45c5 193e e68c acbd fb0d 003e bcb5 473e
000002a0: ecb9 c93d 6f6f f13d e506 f83c c490 913d
000002b0: 8782 04be 8aad 7cbd 94df cb3d 90b4 833e
000002c0: d862 f83d 53c9 6b3c 1b19 03bd 68b3 8bbe
000002d0: 87d1 9a3d 3514 473d d8f7 33bd e59b 2bbd
000002e0: 8eab 63bb de7b 43bd 74b2 bc3d a473 d6bb
000002f0: 9f68 8abe 5544 523e aa62 e9bc d5ce a43d
00000300: 5579 72bb 81ea 253d 5bf8 693c 649a 9abd
00000310: d4ef 923d 4e7a 69bd bdb2 efbc 47ff 0e3e
00000320: 3dee 2e3d 025d 633d aedc ba3d bca0 4f3d
00000330: 0e89 b3bc 4ff0 2d3d 5543 933c 796a 493d
00000340: be52 e13d 4eca 7d3e f155 a93e ef44 2e3d
00000350: 6e09 44bd f01b 223c 23c3 0cbd 1a9e 95bd
00000360: 5014 b13d f226 efbc d93a 9c3e 252c 4a3e
00000370: d2ea 693d f9db 113e 30a2 b73b 5a9d 513e
00000380: 7a2f a83d ee14 253e 0997 aabc 574a a8bd
00000390: cfd7 dc3d d9a8 f03e c7f2 813d 8c50 963c
000003a0: cdf2 f5bc b6eb 373e 54ec c73c feb3 363e
000003b0: a34f 203e 83d2 8c3d f125 363d f72e d1bc
000003c0: c700 4cbd 7cde 88bb 6558 ba3e 5dd1 97bd
000003d0: af6a d73d 4674 f13d ec8b 84bd a08b 9bbd
000003e0: ee68 8c3e 6b93 a5bd 1c8a 2e3d 6afa 5c3d
000003f0: 51de 6dbc 4cdb 0fbd 85a1 89bc c180 b73e
0.0013972278 -0.026719006 0.02631639 0.029959815 0.3166614 0.23989135 0.21104833 0.22033808
0.23669022 0.43006077 0.1155082 0.3005805 0.053034563 0.14653443 0.17097132 0.0467673
0.018186986 0.18951423 0.2715231 0.22559854 0.41966712 0.05583549 -0.06603153 0.3733695
0.14404087 0.121689126 0.13812429 -0.086982556 0.124136806 0.10261678 0.3104016 0.18008856
0.04848697 0.24674 0.36488444 0.039660122 -0.019640217 0.42489663 0.24353518 0.26317313
0.16089953 0.011960675 0.07002765 0.28937423 0.24699034 0.14992361 -0.018221486 0.25835064
-0.09522652 0.093926154 0.31815606 0.38314012 0.25388372 0.12088161 0.07542979 0.19336225
0.1395554 0.2528563 0.29646975 0.15929554 0.26895764 0.38326916 0.058500726 0.32320863
0.07384693 0.005474495 0.020646295 0.016973488 -0.044848494 -0.06859774 -0.09640369 -0.09438528
0.123900674 -0.09062829 -0.11809184 -0.075995624 0.023909895 0.01397967 -0.0026202817 0.027004648
0.085629866 -0.030479306 0.030485664 -0.093367524 0.13205843 0.077511385 0.032466315 -0.041433863
0.08343026 -0.034600586 -0.1812023 -0.15444198 0.08856313 -0.12162951 0.019800507 0.026572123
-0.08325994 -0.12491343 0.02430149 0.041939918 0.14879732 0.055382732 -0.10201042 0.07099194
0.10481108 -0.009915192 -0.046021964 -0.10765003 -0.18300478 -0.035039384 -0.10267319 0.073202774
-0.04081762 -0.123417385 -0.09457022 0.11984224 -0.08325581 0.0906925 0.124151476 0.077634886
-0.015053645 -0.08017363 0.08855688 -0.027234001 -0.016900728 0.02903845 -0.15310974 0.027067648
0.040992234 -0.10577088 -0.09629804 0.07294638 0.18515033 -0.0365891 0.012245824 -0.02259303
-0.016074633 0.19796082 -0.047581334 0.030849293 0.0065528383 0.028629377 0.07911088 -0.11107312
-0.09777477 -0.049880765 -0.055251144 0.19956644 0.25755712 -0.08348068 0.04250434 -0.37285858
-0.20047194 -0.026434282 0.03583485 0.059487373 0.2261128 0.023660004 0.2637509 0.16995402
0.04024114 0.13573152 0.0874347 0.1433476 0.15016659 -0.08425312 0.12505333 0.1950292
0.09849915 0.117888324 0.030276725 0.0710769 -0.12940417 -0.061688937 0.099547535 0.25723696
0.12128228 0.014391261 -0.032006364 -0.27285314 0.075594954 0.048603255 -0.043937534 -0.04189672
-0.0034739706 -0.04772555 0.09213725 -0.006544547 -0.27032945 0.20533879 -0.02848943 0.080472626
-0.003699859 0.040506843 0.014280404 -0.07548979 0.0717465 -0.057001404 -0.029260034 0.13964568
0.04270767 0.05550862 0.091241226 0.050690398 -0.021915939 0.042465504 0.017976442 0.049173806
0.1100211 0.24784204 0.3307338 0.04254621 -0.047860555 0.009894356 -0.034365784 -0.07305546
0.086464524 -0.029193375 0.30513647 0.19743402 0.057108708 0.14244069 0.005604051 0.20470181
0.082121804 0.16121265 -0.020823972 -0.08217304 0.1078335 0.4700382 0.06345134 0.018348955
-0.030023003 0.1796101 0.024404682 0.17842099 0.15655379 0.068760894 0.044469777 -0.02553509
-0.04980543 -0.004176913 0.36395565 -0.0741298 0.10518395 0.117897555 -0.064720005 -0.07594991
0.27423805 -0.08084758 0.04261218 0.05394975 -0.014518336 -0.035121247 -0.016800651 0.3584042
