acados_mpc/acados_mpc/RNN_model50k.pt (torch, 11438 bytes, 34 tensors)

rnn.weight_ih_l0 f4 [4, 13]
0	0xbbbebccf	-0.0058208476
1	0x3e7392af	0.23786424
2	0xbe17ed66	-0.14836654
3	0xbb14d990	-0.0022712685
4	0x3e3d96d8	0.18514574
5	0xbdfe34a6	-0.12412386
6	0x3f0b8acb	0.54508656
7	0xbcf87df7	-0.030333502
8	0xbaf54de4	-0.001871523
9	0x3cd981c7	0.02655114
10	0x3df420a8	0.11920291
11	0xbb81dd81	-0.003963173
12	0xba17e1d5	-0.00057938445
13	0xbde97333	-0.11398926
14	0xbd017d6c	-0.031613752
15	0x3cd91e37	0.026503665
16	0xbdc5337f	-0.09628963
17	0xbcb94125	-0.022614071
18	0x3cb11d2d	0.021620357
19	0xbd982c32	-0.074303046
20	0x3e8a0e27	0.26963922
21	0xbae7f1b6	-0.0017695937
22	0xbb814b15	-0.003945718
23	0xbc516f48	-0.012782879
24	0x3d5ea269	0.054354105
25	0x39549ecc	0.00020277052
26	0x3bfefd7c	0.0077816825
27	0x3fd4f387	1.6636819
28	0x3fb4f465	1.4137083
29	0xbd8b7ae9	-0.068105526
30	0x3f428348	0.7598157
31	0x3faf7674	1.3708024
32	0x3f8b058e	1.086107
33	0x3f85cf46	1.045388
34	0xbe9496db	-0.29021344
35	0xbeb0c2e8	-0.34523702
36	0x3e015fa7	0.12634145
37	0x3d7dadea	0.061933435
38	0xbde91804	-0.11381534
39	0x3f13e341	0.57768637
40	0xbfa2115a	-1.2661545
41	0x3ec46149	0.38355473
42	0x3f12d236	0.57352006
43	0xbf975444	-1.1822591
44	0x3eafc1c3	0.34327516
45	0xc0269849	-2.6030447
46	0xbfea376c	-1.8298163
47	0x3e1c0867	0.1523758
48	0xbdee0ab0	-0.11623132
49	0xbf3b5a45	-0.73184615
50	0xbf11bd91	-0.5692988
51	0x3c383e2a	0.01124529

rnn.weight_hh_l0 f4 [4, 4]
0	0x3d845fd1	0.06463588
1	0x3d0f3ebb	0.034971934
2	0xbc7325ae	-0.0148405265
3	0x3b958c14	0.0045638178
4	0xbd39cfc3	-0.045364153
5	0xbd9e40d9	-0.077272125
6	0xba8968b4	-0.0010483474
7	0xbc3a52be	-0.011372266
8	0xbd6b63aa	-0.057468094
9	0xbf3f44ce	-0.7471436
10	0xbea671cd	-0.32508698
11	0xbe9d0e59	-0.3067501
12	0xbe36fc13	-0.17869596
13	0x3c9e1425	0.019296715
14	0x3d12f90b	0.035882037
15	0xbc3d6c24	-0.011561427

rnn.bias_ih_l0 f4 [4]
0	0x3effc0d4	0.49951804
1	0xbdc03fd8	-0.09387177
2	0x3e8893ea	0.2667535
3	0xbf2a95d2	-0.6663486

rnn.bias_hh_l0 f4 [4]
0	0x3dc83369	0.09775431
1	0xbe92ac97	-0.286473
2	0x3dab1fb4	0.08355656
3	0xbef4297f	-0.4768791

rnn.weight_ih_l1 f4 [4, 4]
0	0xbf06268c	-0.5240257
1	0x3f160a07	0.5860905
2	0xbf23276f	-0.63732046
3	0xbbafec75	-0.005368764
4	0xbdb2db5b	-0.08733245
5	0xbf4e06b5	-0.80478984
6	0xbe0009f6	-0.125038
7	0x3ed42035	0.41430822
8	0x3d881c2a	0.06645997
9	0x3edd09f8	0.43171668
10	0xbf81057b	-1.0079798
11	0xbd219a2e	-0.039453678
12	0x3ecaf416	0.39639348
13	0x3f4bc6e7	0.79600376
14	0xbd78d330	-0.06074828
15	0x3e1908e4	0.14944798

rnn.weight_hh_l1 f4 [4, 4]
0	0xbc370499	-0.01117053
1	0xbc249669	-0.010045626
2	0x3ccad2ae	0.024758663
3	0xbbd9d48d	-0.0066476525
4	0xbdb5e79d	-0.08882067
5	0x3b7c2b70	0.003847804
6	0x3d371e89	0.044706855
7	0xbcb4907a	-0.022041548
8	0x3d9513cf	0.07279169
9	0x3d506b40	0.05088353
10	0xbd3f8799	-0.046760175
11	0x3c0cf8ca	0.008604238
12	0xbd9cd69b	-0.0765812
13	0xbd4c94f1	-0.04994673
14	0x3ce4a8d8	0.027912542
15	0x3dc8cae4	0.09804323

rnn.bias_ih_l1 f4 [4]
0	0x3b1152a6	0.0022174506
1	0xbe82673d	-0.2546939
2	0xbde5ac04	-0.1121445
3	0xbe0924f0	-0.13392997

rnn.bias_hh_l1 f4 [4]
0	0xbcb2a353	-0.021806395
1	0xbe8fe7a6	-0.2810642
2	0xbd976c2d	-0.0739368
3	0x3e00db72	0.12583712

rnn.weight_ih_l2 f4 [4, 4]
0	0x3f0c6517	0.5484175
1	0x3eece7bd	0.46270552
2	0xbb48637d	-0.0030576878
3	0xbf1d8c90	-0.61542606
4	0x3c673f9a	0.014114285
5	0xbe48a342	-0.19593528
6	0xbd232513	-0.03983028
7	0x3f9dce93	1.2328666
8	0x3f276859	0.65393597
9	0xbdb0df9e	-0.086364016
10	0x3f1fffd9	0.6249977
11	0x3df2a5b1	0.118480094
12	0x3fc4e692	1.5382864
13	0x3e6aff3a	0.22948924
14	0x3e7f8843	0.24954323
15	0xbe2bbe7e	-0.16771886

rnn.weight_hh_l2 f4 [4, 4]
0	0xbbe6c259	-0.007042211
1	0xbd556c19	-0.052105043
2	0xbcb4b88f	-0.02206066
3	0x3d5b3de8	0.053525835
4	0x3dbef281	0.09323598
5	0x3b40b936	0.002940727
6	0xbdca28a9	-0.098710366
7	0x3d992b1f	0.07478928
8	0xbd94e6ca	-0.07270582
9	0x3c3249d6	0.010881862
10	0xbcf1a81c	-0.029499106
11	0x3ca5097f	0.02014613
12	0x3ce68b7e	0.028142687
13	0x3e07d9ee	0.13266727
14	0xbd751ff7	-0.059844937
15	0xbd07cd81	-0.03315497

rnn.bias_ih_l2 f4 [4]
0	0xbd379d78	-0.04482791
1	0x3e497a92	0.19675663
2	0xbd11f8cf	-0.035637673
3	0xbd68d45c	-0.056843147

rnn.bias_hh_l2 f4 [4]
0	0xbc0e92ee	-0.008702023
1	0xbe368cb9	-0.17827119
2	0xbd930ff7	-0.071807794
3	0xbc2afdb2	-0.010436462

rnn.weight_ih_l3 f4 [4, 4]
0	0x3e419582	0.18904689
1	0xbf581cee	-0.84419143
2	0x3e81c854	0.2534815
3	0x3dd7b881	0.10533238
4	0x3f420bb6	0.7579912
5	0xbf2e33b3	-0.68047637
6	0xbf910774	-1.13304
7	0x3e8b3e6a	0.27196056
8	0x3d973155	0.07382456
9	0x3f0ab0c7	0.5417599
10	0xbe0b11dc	-0.13581032
11	0xbd22f73a	-0.039786555
12	0xbeaa0dc3	-0.33213624
13	0x3eb392c1	0.35072902
14	0xbf63449d	-0.8877657
15	0xbf26e218	-0.6518874

rnn.weight_hh_l3 f4 [4, 4]
0	0x3dff2f2c	0.12460169
1	0x3df95fe1	0.121764906
2	0x3c88b801	0.016689302
3	0x3c68a447	0.014199323
4	0xbe4a307a	-0.19745055
5	0x3cee35f0	0.029078454
6	0xbc7ed81f	-0.015554457
7	0x3c4fc6f7	0.012681714
8	0xbc455714	-0.012044687
9	0x3e32ef6d	0.17474146
10	0x3cb711f5	0.02234743
11	0xbe305a77	-0.1722201
12	0x3d850cc2	0.06496574
13	0x3cf1a97a	0.029499758
14	0x3c9a729c	0.018853478
15	0x3d6e22b4	0.058138564

rnn.bias_ih_l3 f4 [4]
0	0x3eb0fef5	0.34569517
1	0xbdfa4ab0	-0.12221277
2	0xbc797a6e	-0.015226943
3	0x3e842dbf	0.25816151

rnn.bias_hh_l3 f4 [4]
0	0x3e4f3014	0.20233184
1	0xbe806310	-0.2507558
2	0xbe0d96d7	-0.13827072
3	0x3e093e7a	0.13402739

rnn.weight_ih_l4 f4 [4, 4]
0	0xbf6ec819	-0.93274075
1	0xbe64117d	-0.22272296
2	0x3ef11dec	0.4709314
3	0x3ec17778	0.3778646
4	0xbe34eb16	-0.17667803
5	0xbea4a1a3	-0.3215457
6	0x3dcc1056	0.09964053
7	0x3f41e503	0.7574007
8	0x3e255e21	0.16149189
9	0xbea9f6b2	-0.33196026
10	0x3d1d7bf0	0.038448274
11	0xbf25d0f6	-0.64771974
12	0xbf4c7784	-0.79869866
13	0x3e96dfeb	0.2946771
14	0x3e9371bf	0.2879772
15	0x3fa9dc65	1.3270384

rnn.weight_hh_l4 f4 [4, 4]
0	0xbd77b578	-0.060475796
1	0x3dc1ad32	0.094568625
2	0x3d71ce9f	0.05903494
3	0x3c546344	0.01296312
4	0xbc92dea0	-0.017928421
5	0xbde614dc	-0.11234447
6	0x3cbf78db	0.023373058
7	0x3dbb8fbf	0.09158277
8	0xbc372f0d	-0.011180651
9	0xbcb09955	-0.02155749
10	0x3d460169	0.04834119
11	0x3d3bbd63	0.04583491
12	0xbd58429c	-0.0527979
13	0x3d7ffb7d	0.062495697
14	0xbd94e90b	-0.07271012
15	0xbd8c9a1a	-0.0686533

rnn.bias_ih_l4 f4 [4]
0	0xbe15e049	-0.14636339
1	0xbda453e3	-0.080238126
2	0xbd716bfc	-0.058940873
3	0xbe063ef1	-0.13109948

rnn.bias_hh_l4 f4 [4]
0	0x3e76b82c	0.24093693
1	0xbaadd5e1	-0.0013262593
2	0xbe64e63e	-0.22353455
3	0x3e5cd887	0.21566974

rnn.weight_ih_l5 f4 [4, 4]
0	0xbf311f2c	-0.6918819
1	0xbf73d09c	-0.9524019
2	0x3f590cab	0.84784955
3	0xc02693da	-2.6027741
4	0xbf0ccaf6	-0.54997194
5	0x3dfbdb6b	0.1229771
6	0xbf2661dc	-0.6499307
7	0xbda91817	-0.08256548
8	0xbfc42b0e	-1.5325639
9	0xbf589b87	-0.84612316
10	0x3dea7e8b	0.114499174
11	0x3e93306f	0.2874789
12	0x3f4cab1a	0.7994858
13	0xbf2bcdc5	-0.67110854
14	0x3f387dc0	0.7206688
15	0xbed69607	-0.41911337

rnn.weight_hh_l5 f4 [4, 4]
0	0x3ca15fd4	0.019699015
1	0x3e55f683	0.20894818
2	0x3dbd3507	0.0923863
3	0xbc19d2fd	-0.009388682
4	0xbd02583a	-0.03182242
5	0x3d74d281	0.059771065
6	0x3c3f2cf2	0.011668431
7	0x3dc5baae	0.09654747
8	0xbbd0fca6	-0.0063777743
9	0xbc8e9baa	-0.01740821
10	0x3d0fcdf3	0.035108518
11	0x3d0d95b2	0.03456659
12	0xbcf1faf3	-0.029538607
13	0xbd33df98	-0.043914407
14	0x3d059283	0.032610428
15	0xbc8edf29	-0.017440395

rnn.bias_ih_l5 f4 [4]
0	0x3ea1c78a	0.3159755
1	0x3e174a57	0.14774452
2	0xbe8a69a1	-0.27033713
3	0xbe434546	-0.19069394

rnn.bias_hh_l5 f4 [4]
0	0x3efe2663	0.49638662
1	0xbe3e7286	-0.18598375
2	0xbe983d18	-0.2973411
3	0xbe92b52e	-0.28653854

rnn.weight_ih_l6 f4 [4, 4]
0	0xbeae7e18	-0.34080577
1	0x3f55fb26	0.8358635
2	0xbff90a2e	-1.9456232
3	0xbf568816	-0.838014
4	0x3efad636	0.48991555
5	0x3e9a63a8	0.30154157
6	0x3e0b7426	0.13618526
7	0xbd59d562	-0.053182013
8	0x3ea79e0d	0.3273777
9	0xbf8e51fc	-1.111877
10	0xbef34c84	-0.47519314
11	0x3f21be24	0.63180757
12	0xbfdda343	-1.7315449
13	0x3d8162db	0.06317683
14	0xbf9d5eaa	-1.2294514
15	0xbef7fbde	-0.48434347

rnn.weight_hh_l6 f4 [4, 4]
0	0xbd30df82	-0.043181904
1	0xbe14ea4b	-0.145425
2	0x3cff5bd8	0.031171724
3	0xbd6cb04d	-0.05778532
4	0x3cf24869	0.029575543
5	0x3db28418	0.08716601
6	0x3ca546b0	0.020175308
7	0xba4b231e	-0.00077490683
8	0xbc8a5742	-0.01688731
9	0xbd1dfd80	-0.038571835
10	0xbceea0b5	-0.029129365
11	0x3b1f802d	0.0024337873
12	0x3b43ef2a	0.0029897192
13	0xbc43a53e	-0.011941252
14	0xbd8e3238	-0.06943172
15	0xbc90b10f	-0.017662553

rnn.bias_ih_l6 f4 [4]
0	0xbdcef77f	-0.101058
1	0x3e990a80	0.29890823
2	0x3f081723	0.53160304
3	0xbe8e8c1e	-0.27841276

rnn.bias_hh_l6 f4 [4]
0	0x3e3bb8e1	0.18332244
1	0x3bea1947	0.0071441266
2	0x3ded072a	0.11573632
3	0x3c5f3ad8	0.013624869

rnn.weight_ih_l7 f4 [4, 4]
0	0xbf4665f0	-0.77499294
1	0x3f04e3df	0.51910204
2	0x3ed1ed6a	0.41001445
3	0xbf7ccfa4	-0.98754334
4	0x3eaf19a0	0.34199238
5	0xbecc2c96	-0.39877766
6	0x3fc4c8ad	1.5373741
7	0x3ead8bc1	0.33895686
8	0xbd261221	-0.040544633
9	0x3f7467df	0.95470995
10	0x3fc087e6	1.5041473
11	0xbfefcf87	-1.8735207
12	0xbf3ff6a2	-0.74985707
13	0xbf7452be	-0.95438755
14	0x3fecd7e6	1.8503387
15	0x3ef7c92b	0.48395666

rnn.weight_hh_l7 f4 [4, 4]
0	0xbc4c680e	-0.01247598
1	0xbc67d1eb	-0.014149169
2	0x3c043d71	0.008071289
3	0xbccfd5c1	-0.02537048
4	0xbc279996	-0.010229489
5	0xbbb2e9ee	-0.0054600155
6	0x3bd40e3d	0.006471424
7	0xbd1a1a79	-0.037622903
8	0xbd51ca83	-0.05121852
9	0xbcc969b0	-0.024586529
10	0x3ca2ce8a	0.019873876
11	0xbc97a939	-0.018513309
12	0x3bc28473	0.0059361993
13	0xbc98b1a7	-0.018639399
14	0xbc7bc25e	-0.015366165
15	0xbc295ea6	-0.010337507

rnn.bias_ih_l7 f4 [4]
0	0x3d823c13	0.063591145
1	0x3d6948ae	0.05695408
2	0x3eae11a0	0.33997822
3	0x3e79da14	0.24399596

rnn.bias_hh_l7 f4 [4]
0	0xbeb26a6a	-0.34846812
1	0xbea0c092	-0.3139692
2	0x3ed741ff	0.4204254
3	0x3cb3c305	0.021943578

fc.weight f4 [4, 4]
0	0xbf896098	-1.0732603
1	0xc095180a	-4.6591845
2	0xbc4af442	-0.012387337
3	0xbfe50359	-1.7891647
4	0xc03745c2	-2.8636327
5	0x3df0a3fd	0.11750028
6	0x3f0c3d4c	0.5478103
7	0xbe0ffc02	-0.14060977
8	0x3f880d2b	1.0629019
9	0xbf8372f4	-1.0269456
10	0xbfc73127	-1.5561875
11	0x3f97262e	1.1808527
12	0x3b50c6ac	0.00318567
13	0x3b097e1f	0.0020979715
14	0x3a8f002f	0.0010910089
15	0x3c5c2666	0.013436889

fc.bias f4 [4]
0	0xbd03aa47	-0.03214481
1	0xbee606f7	-0.4492719
2	0x3f8e1188	1.10991
3	0x3b364a97	0.0027815455
